2nd Task[SOLUTION]/lightning_logs/version_0/checkpoints/epoch=4-step=7500.ckpt (torch, 960254 bytes, 12 tensors)

fc1.weight f4 [100, 784]
00000000: 730e 4a3c 5bed 0dbd 1c09 eb3c 15de 95bc
00000010: 3a61 f23c 3e38 f3bc 85e4 be3c 8e4f 3e3c
00000020: 0a70 a93c aef8 c2bb 6a96 6bbc 2e04 74bc
00000030: dc17 53bb 1e0f a4bc 019c dbbc 9c1b 2abc
00000040: bead 00bd 6560 27bc a8fd dfbc 5a94 b93c
00000050: 81ae d23b 6c8b 9dbc e708 98bc ec00 c63c
00000060: 65ff 693c b78e da3a 482a 0cbd eed3 78bb
00000070: 2125 5a3c 1592 91bc 7e19 e7bc 38e5 fabc
00000080: a745 c4bc 65d2 323c 4a03 cb3b 0fb8 303b
00000090: 91cf f7ba 2341 0f3d 365e 923c 9d21 0dbd
000000a0: a727 fa3b db40 ed3c bdc6 8a3c 3209 51bd
000000b0: deb7 3e3c 77d7 f2bc a16a f9bc 24c3 6fbd
000000c0: 0b3a 90bd 6a4b 8bbc 6c16 0cbd d01d 9ebc
000000d0: 4e1c f5bc 3320 1fbc a0b0 973c 03f9 f2bc
000000e0: ee0f 1d3b 8a19 72bc 9740 b8bc 5e25 eebc
000000f0: ee91 52bc aee7 f8bc c557 f63c 96cf 673c
00000100: f958 94bc bd81 06bd 595c 9cbc 3f8e 21bd
00000110: d6c6 b63c 57bd e13b f0f0 62bd 10c6 5bbd
00000120: a8f2 15bd d6d2 2fbd 50f4 5cbc 3a4a 09be
00000130: d71d 8dbd 5ef7 623d 9a9f b139 ad0d f53c
00000140: 2255 f5bc c002 923c 9a25 023d 0a73 55bc
00000150: 4078 0e3c 5ed3 f63c ac72 da3c 3c57 7a3c
00000160: b8e1 77bb c545 75bc 6326 bb3c f431 893c
00000170: 7ae7 0cbd e5fd cd3c 9b5a 273c d57d 043d
00000180: 419a d73c e4a3 58bd 3afc 05be 8cd7 1abe
00000190: c0f7 85bd 95be 6dbd 9f65 c6bd 6d04 1ebe
000001a0: 6669 b0bd ee23 17be 05bf d8bc c8ec 2fbd
000001b0: 862d 8fbc 9648 9b3b 05cf 09bd 5868 623c
000001c0: 5a75 babc 91bc f23c d577 8f3c 0993 923c
000001d0: e636 ff3c 7e32 223c 2abd 64bb fbb9 643d
000001e0: 8fbf 38bc 89ef 50bd a1c2 04be 5a25 56bd
000001f0: c8aa fe3c 939f 973c 5b94 913d e796 063d
00000200: 651b 593d e11d 32bc 5626 15bd e71a 653b
00000210: 9d47 1f3d f39b 91bd 95da 8dbd 3e42 0dbe
00000220: 1d06 fdbd 61dc eabd d020 2ebd 41c2 03bd
00000230: 3e51 dc3c 67a9 8abc 037d 2a3d 6aab 363c
00000240: 28a3 b13c a12c 953c 7bd9 c0bb 4217 9ebb
00000250: 0216 8abd 2a29 c4bc 700a afbd c8de 74bd
00000260: 1c4f bbbc 38b3 78bd 80e1 fab6 e92f 213d
00000270: f016 0dbd 416e 9dbd 0cc7 96bd e4f4 79bc
00000280: 09ce 88bd 0b38 71bd ce96 dcbd 3c10 14be
00000290: bdee 77bd 4ab6 26bd d77f a1bc 456e 05bd
000002a0: d33c a7bc c0fd 90bb 5081 fdbb ef13 1f3d
000002b0: 7432 00bd f4e4 56bd 17f2 f83c 7ceb 72ba
000002c0: 7cee edbc 25d9 69bd 7e34 03be f690 3abd
000002d0: cb57 d9bc ca5b f1bb da7b 993b 281f 1dbb
000002e0: fbe0 533c 082f eabc d77c 433c 4280 043c
000002f0: ac90 0cbd dc7c 09bd eaf3 76bd 6c5d abbd
00000300: 040d 2dbd 7a26 a5bd 17be 7bbc 2c72 cebb
00000310: 2cd9 ebbc 5823 883c 773f 473d 0b18 1e3c
00000320: e071 d73d 92fd 583d 4622 6dbb e5ce 3b3d
00000330: eda1 0dbc 7c82 933c d1ba debc fcb2 1bbd
00000340: 43d3 463c 4872 5b3d fb83 003d c2bd dd3c
00000350: e850 c23c c40a 613c 007b b1bb 8835 b13c
00000360: b332 be3c 9a07 7a3c 1f5c 653c 8260 0dbd
00000370: 3f2b 17bd df7f 9ebd 1191 a2bc 74af cdbd
00000380: 9b79 073d ed94 873c 0075 c03c 089b 893b
00000390: 5ccf cd3d 094a 653d 136e 8bbd 92d6 01bd
000003a0: 9faa 5a3d abf0 153d f016 163c b705 99bd
000003b0: b5b6 43bd 373c 6f3b 3885 f4ba 457f ba3c
000003c0: ea70 9c3c 89fd 933b d9db 7a3c 77d7 003d
000003d0: 35b7 903c 6cc6 473c c365 6cbc 2e9c 42bd
000003e0: c333 dcbd 0691 20be 025a c2bc 11c7 c0bd
000003f0: b59b 8abc 92c9 0a3d 60f4 c73c fa86 503c
0.0123325465 -0.034650188 0.028690867 -0.018294374 0.029587377 -0.029689904 0.023302326 0.011615647
0.020683307 -0.005950055 -0.014379123 -0.014893575 -0.0032210266 -0.02002674 -0.026807787 -0.010382559
-0.031415693 -0.010215853 -0.027342632 0.022653747 0.006429494 -0.01923152 -0.018558932 0.024170361
0.014282082 0.0016674612 -0.03422001 -0.0037968117 0.013314516 -0.017769853 -0.028210398 -0.030626878
-0.023958994 0.01091442 0.0061954604 0.0026965176 -0.0018906464 0.03497423 0.017867189 -0.034455884
0.0076341215 0.02896159 0.016940469 -0.05103416 0.011640517 -0.029643757 -0.030446352 -0.05853571
-0.07042321 -0.017003734 -0.03420107 -0.019301325 -0.029920723 -0.009712267 0.018516839 -0.029659754
0.0023965794 -0.014776597 -0.022491736 -0.029070552 -0.012852175 -0.030383911 0.030071149 0.014148613
-0.018108832 -0.03283857 -0.019087004 -0.039442297 0.02231161 0.006889026 -0.055405557 -0.053655684
-0.03660837 -0.04292568 -0.013485983 -0.13407221 -0.06890457 0.05541169 0.00033878983 0.029913748
-0.029947821 0.017823577 0.03177414 -0.013027916 0.008695662 0.030130085 0.026666008 0.015279587
-0.0037823748 -0.014970248 0.022845453 0.016747452 -0.03440044 0.02514548 0.010214473 0.032346565
0.026318671 -0.052890673 -0.13084498 -0.15121287 -0.06541395 -0.05804308 -0.096873514 -0.15431376
-0.08613853 -0.147598 -0.026458273 -0.04295042 -0.017477762 0.0047388775 -0.033644695 0.013818823
-0.022761036 0.029630931 0.017513195 0.017892377 0.031154107 0.009899734 -0.003490279 0.055841427
-0.01127614 -0.05100969 -0.1296487 -0.052281715 0.031087294 0.018508708 0.07108375 0.032858755
0.05300464 -0.0108713815 -0.036413513 0.0034958662 0.038886655 -0.07109823 -0.06926457 -0.137948
-0.12354682 -0.11467815 -0.04251176 -0.032167677 0.026894208 -0.01692648 0.041623127 0.011149267
0.021684244 0.018209757 -0.0058853007 -0.00482455 -0.06742479 -0.02394541 -0.08546913 -0.059782773
-0.02286487 -0.06071779 -7.4768323e-06 0.03935233 -0.034445703 -0.07687045 -0.07362184 -0.01525614
-0.06679923 -0.058891337 -0.10770951 -0.14459318 -0.060530413 -0.04070119 -0.01971428 -0.032575864
-0.020414745 -0.0044247806 -0.0077363625 0.03883737 -0.031298116 -0.05246444 0.030388875 -0.0009266657
-0.029044382 -0.05709185 -0.12812993 -0.0455484 -0.02653112 -0.0073656784 0.0046839537 -0.002397487
0.0129320575 -0.02858688 0.01193162 0.00808722 -0.034317657 -0.03356634 -0.06029121 -0.08367428
-0.04224874 -0.080639794 -0.015365145 -0.0063002314 -0.028790079 0.016618416 0.04864451 0.009649287
0.10519767 0.0529762 -0.0036183759 0.045851607 -0.008644563 0.018006556 -0.02718869 -0.03801249
0.01213533 0.053575784 0.031375866 0.027068023 0.02372022 0.013735477 -0.005416274 0.021631971
0.023217535 0.015260601 0.013999014 -0.034515865 -0.036906477 -0.07739233 -0.019844564 -0.10043231
0.033074956 0.016550506 0.02349329 0.0041993894 0.10049316 0.05597881 -0.06808104 -0.03169877
0.053385373 0.036606472 0.009160742 -0.07471793 -0.047781665 0.0036504397 -0.0018655425 0.022765765
0.01909681 0.0045163077 0.015311205 0.031455483 0.017665485 0.012193304 -0.014428559 -0.047512226
-0.1075206 -0.15680322 -0.02372456 -0.09412969 -0.01691995 0.03388364 0.02440852 0.012727493

fc1.bias f4 [100]
00000000: b2ef eebd d069 78bd 9703 3abd abdb 5bbc
00000010: 0187 fbbb 76ac 2cbd 594b e8bc 4b56 80bd
00000020: c796 893b 79bb 8bbd 80b2 4d3c 915f c2bc
00000030: 2da4 b0bc 4c93 b1bc e42d ecbb 5f39 893c
00000040: 4b0e 67bd b4b0 283d 23cf 06bd 0678 1bbc
00000050: c31e c3bc 6e87 c6bc 8a6a 09be ff88 20bd
00000060: d465 f4bb 0cb5 91bd 9675 c0bc 66d8 023e
00000070: a529 633b 8f8c 09bd 6433 6f3c d16b 873c
00000080: dd36 5abc b759 bbbc 9bbd 3bbc 8c1f 43bd
00000090: 5137 d039 c213 a3bd f662 09bc a5c4 0abd
000000a0: 87b5 a5bb 4af4 a0bc 44c0 2abb 73ff 7fbd
000000b0: 2288 a7bc ec30 62bc b60f 06b9 b76c 85bd
000000c0: ae88 0cbe e0c6 6f3b d4a0 81bc 915b 0abd
000000d0: f893 28bd d0de dabb eaf2 613c f00b 84bd
000000e0: 3c38 813c a4c6 50bc 3974 98bd dc1a b4bd
000000f0: 4636 15bd a07c 17bd f6c8 e6bc 2ff6 cfbc
00000100: 00fd 703a ac8c a3bd 7fa9 863d 5dd3 c6bc
00000110: 2496 24bd 5ba5 353c b72b 14bd 4655 d8bc
00000120: a204 a7bc 04b8 8cbd 18a4 77bc 77c5 fa3c
00000130: 0749 f1bc 4053 8ebc d33b adbc e4e6 2dbc
00000140: 4c69 9fbd 7fb5 163b 2e2f 30bd 5403 b7bd
00000150: d528 333d d755 53bd 9235 53bd 9fb2 83bc
00000160: d4e7 6bbd 0737 513a 261f 353c 3eaf 83bc
00000170: c105 963a ea5c efbc be87 a5bc 6629 29bd
00000180: b2d5 57bd c09c 07bd e2f5 4ebc cd93 2ebe
-0.11666812 -0.060647786 -0.04541358 -0.013419072 -0.007676006 -0.04215666 -0.028356241 -0.06266459
0.0041988823 -0.06822867 0.012554765 -0.02372721 -0.02156266 -0.021676682 -0.007207619 0.01675099
-0.056410115 0.041184142 -0.032912385 -0.009489065 -0.02381838 -0.0242345 -0.13419548 -0.03919315
-0.007458428 -0.0711461 -0.02349357 0.12777862 0.0034662273 -0.033581313 0.014599655 0.016530903
-0.0133187445 -0.022869928 -0.01145878 -0.047637507 0.00039714065 -0.07962753 -0.0083854105 -0.03387894
-0.00505704 -0.019647736 -0.002605454 -0.062499475 -0.020450655 -0.013805609 -0.00012785089 -0.06514876
-0.13724014 0.0036587045 -0.01582376 -0.03377873 -0.04115674 -0.0066793934 0.013790825 -0.064475894
0.015773885 -0.012742672 -0.07444043 -0.087941855 -0.036428712 -0.036984086 -0.028171998 -0.025385944
0.00091929734 -0.079858154 0.065752976 -0.024270708 -0.040182248 0.011086787 -0.036174502 -0.026407849
-0.020387951 -0.06871036 -0.015114807 0.030611737 -0.029453767 -0.017373681 -0.02114669 -0.010614131
-0.07783756 0.0022996364 -0.043013744 -0.08936182 0.043740112 -0.051595535 -0.05156476 -0.016076384
-0.057594135 0.0007980917 0.01105479 -0.016074773 0.0011445807 -0.02921911 -0.020206328 -0.041299246
-0.05269403 -0.033108473 -0.012631865 -0.17048569

fc2.weight f4 [10, 100]
00000000: ccf9 39bb 7d74 69bd 3fd0 953d 4518 97bd
00000010: a3d2 66bd 2748 3e3d ca4a 3e3d d022 233d
00000020: dcc3 f03c e7e8 cebc db8f 853b a9d4 18bd
00000030: 3dd9 6abc d289 aabd ce87 14bd 755f 853d
00000040: ffa8 903d 26bc ab3c 980d 16bd 2b59 54bd
00000050: 11fc 69bd 0128 4abc 524e 90bc 4fad 933c
00000060: 9da8 e13b 6cee b03c 9d9f c3bd 79d1 203d
00000070: 6836 ed3c b8b6 87bd 267b c1bb d7ac 65bb
00000080: aa18 773d 3566 5f3d 07f0 f7bb de75 06bc
00000090: 08fe 2e3d 8d8c 3c3d ad02 edbc a41d 703d
000000a0: 6bfd a13d 866f 9bbd b828 25bc 88bf c0bd
000000b0: 10af d13d bbff 94bd 8e0a 85bb 74cf 103d
000000c0: 72ff 3fbd fb4a c2bd f9e9 97bd 6dc4 723c
000000d0: 5278 273c fc96 883d ab8f a33c 6ccf 38bd
000000e0: df9f 773d 7b80 833d e5cd a03c 2f9f 94bd
000000f0: 606f d1bb 646c a4bd e570 203b c357 403d
00000100: 64e8 72bc 923b 833d 8121 31bd 65ed 5c3d
00000110: 437f d6bb 3318 85bc ba1b 593d 2141 8d3d
00000120: 2816 35bd cbf9 84bd b6cd 793c 1b48 64bb
00000130: f154 9cbd 310b 7ebd 670b 6bbd c595 553d
00000140: 3552 20bc 07e5 843c c0e8 9dbc f3ba dcbc
00000150: c45b 7fbc 7603 453c 469c 633c 86b4 e83b
00000160: ffb4 92bb ec87 efbb 5600 0a3d 9040 5a3c
00000170: 10dc 9e3d 1cf6 9e3c b64d 733b d8bb b03c
00000180: 9bee d63c abb0 ed3b 6c28 0bbd 20e7 a03b
00000190: 901f 3f3d 845d 9f3c 46c8 03bd a5f5 cbbd
000001a0: a9e3 9b3d 7d17 6abc 66e9 83bd 7f12 b73c
000001b0: d7e7 42bd 1584 843c 79a2 29bd 2ffe e2bc
000001c0: 5249 863d 66b3 573c 8b64 97ba c1d2 30bd
000001d0: 59a5 aaba d530 5d3c 046e 993d 1a27 20bc
000001e0: 0231 463d 6fb9 06bd 6857 643d c0ca 923c
000001f0: ab90 323d 0370 34bd 71a6 0ebd 5926 353c
00000200: 77d5 4f3a 9344 8abd 7655 3d3d 47ba ad3d
00000210: 672a 91bc 7080 7c3d 74e3 c2bd da14 273d
00000220: 3557 513b 1992 e23c c8ac 583c ebfc 8d3d
00000230: bed2 883d af71 c53c eb5b 3abd 17d3 2b3d
00000240: 5dfc bfbd 82c0 a8ba c0e2 233d fea2 8b3d
00000250: 4298 803d 0f79 a83c b492 823d b5ea a43d
00000260: 66bd 8bbd 86c3 313c 722d 58bd 8bba 443d
00000270: f35e 6f3d 27ac b6bc fe6f 313d a0e4 b33d
00000280: 7cad 103d 642d b33d 891c 11bc 4bb8 17bd
00000290: 5456 1abd a536 25bd 5114 20bd b930 153c
000002a0: 580e a0bd c315 80bd 80c8 473d 4a90 843c
000002b0: 8834 26bd e83a 34bc be26 033d 54b4 0fba
000002c0: bd58 873d 15cb e6bc 6d00 a4bc 468e 44bc
000002d0: 1a13 2c3d a1d8 3ebd 293d 433d 58e0 343d
000002e0: 6175 313d bfe3 d93c 06fb 6c3c 7fc0 c23c
000002f0: 6951 033d 9d4d 283d c18a 5abb 02f8 353d
00000300: 18b6 abbd 8e5c a93d 79e6 8cbd 9022 a1bc
00000310: 2273 3b3d f561 84bd 092f 993d 3f7c b63b
00000320: 802e a7bc 8a15 1fbd 64dc c63d b7c2 dcbc
00000330: 5492 9b3d d135 803d 4918 293d 57eb 9ebd
00000340: b188 90bd b69a 533c e23c c7bd 34ee 94bd
00000350: 4619 ddbc a39a 95bd 0e54 6fbc 4449 823c
00000360: f925 83bc 25eb b03d dd9d a63d 6644 05bd
00000370: 8568 a4bd 408c 1cbc 122b d4bc fc92 9b3d
00000380: dac8 743d 0c2e 01bd cb7f c6bc d5db 083d
00000390: 7bda 10bd fdf5 0bbc 8f3b a7bd c7de aaba
000003a0: 6000 9e3c a066 2dbc c12c 8fbd 8bb1 d1bb
000003b0: 453f 303d 61f4 003c c800 8e3b c6c2 bc3d
000003c0: bb90 243d b9e4 18bd 68ea 7bba 0c4e 473d
000003d0: e002 8c3c 0d70 243d e370 89bd 2f90 463d
000003e0: 8fd2 493d 69a1 2e3c 3c45 e33c 9d82 21bc
000003f0: c905 673d 93ca 873d a4d9 1dbd 6686 743d
-0.002837765 -0.056995858 0.073151104 -0.07377676 -0.056353223 0.04645553 0.046458043 0.03982812
0.029390268 -0.02525754 0.004075987 -0.037312184 -0.01433402 -0.083270684 -0.036262326 0.065123476
0.070634834 0.02096374 -0.036634058 -0.05184285 -0.057125155 -0.012338639 -0.017615471 0.018026976
0.0068865553 0.021598063 -0.09551928 0.03926227 0.028956607 -0.06626648 -0.005904573 -0.0035045648
0.060326256 0.05454083 -0.0075664553 -0.008206813 0.04272273 0.046032477 -0.02893194 0.058622018
0.07909664 -0.07589631 -0.010080509 -0.09411532 0.10238469 -0.07275339 -0.004060096 0.035354093
-0.04687447 -0.09486958 -0.074176736 0.014817339 0.010221558 0.06669423 0.019965967 -0.045119688
0.0604552 0.0642099 0.019629428 -0.07256924 -0.0063914508 -0.08028486 0.0024481353 0.046958696
-0.014825914 0.064078465 -0.043244842 0.053937335 -0.0065459325 -0.01624689 0.053004958 0.06897188
-0.044210583 -0.06492957 0.015246799 -0.0034833017 -0.07633389 -0.06202239 -0.05738392 0.052144784
-0.009785225 0.01622249 -0.019276023 -0.026944613 -0.0155858435 0.012024751 0.013892239 0.007101598
-0.004477143 -0.0073099043 0.033691727 0.013321057 0.07756817 0.019404463 0.0037125177 0.021573946
0.026236823 0.0072537265 -0.033974096 0.0049103647 0.04666096 0.019453771 -0.032173418 -0.09958962
0.07611782 -0.014287827 -0.064410016 0.022347687 -0.04758438 0.016176263 -0.04141471 -0.027709095
0.065569535 0.0131653305 -0.001155035 -0.04316974 -0.0013019248 0.013500412 0.07491687 -0.009774948
0.04838658 -0.032891687 0.05574742 0.017918944 0.043594997 -0.044052135 -0.0348267 0.011056506
0.0007928232 -0.06751361 0.04622408 0.08482795 -0.017720414 0.061645925 -0.095160395 0.04079137
0.0031942849 0.027657555 0.013224788 0.06933006 0.06680821 0.02410206 -0.045497816 0.041949358
-0.09374306 -0.0012874755 0.040011168 0.06818198 0.06279041 0.020565538 0.06375638 0.08052579
-0.06823234 0.010849839 -0.052777715 0.048029464 0.05844016 -0.022298886 0.043319695 0.08783841
0.035321698 0.08748892 -0.008856901 -0.03704099 -0.037679985 -0.040335316 -0.039081875 0.009105855
-0.07815236 -0.06254151 0.048775196 0.016182084 -0.04057744 -0.0110003725 0.03201937 -0.0005481888
0.06608722 -0.028173009 -0.020019734 -0.011996811 0.042010404 -0.046593312 0.04766575 0.044159263
0.043324832 0.026597856 0.0144641455 0.02377343 0.03206006 0.041089643 -0.0033346864 0.04442597
-0.08384341 0.082696065 -0.06879897 -0.019669801 0.045764096 -0.06463996 0.07479674 0.0055690105
-0.020407915 -0.0388389 0.09710005 -0.026948316 0.07596269 0.06260265 0.041282926 -0.07759731
-0.07057322 0.012915304 -0.09728409 -0.07271996 -0.02698959 -0.07304885 -0.014607443 0.015904076
-0.016009318 0.086386 0.08135579 -0.032535933 -0.08027748 -0.009554923 -0.025899444 0.075963944
0.05976186 -0.031538054 -0.024230858 0.033412773 -0.03536461 -0.008542535 -0.08165657 -0.0013036364
0.019287288 -0.01058355 -0.06990958 -0.0063993386 0.04302909 0.0078707645 0.004333589 0.092168376
0.04017709 -0.037327502 -0.00096098194 0.048658416 0.017091215 0.040145922 -0.067109846 0.048477348
0.04927307 0.0106586 0.027742974 -0.009857801 0.056402 0.06630435 -0.038537636 0.059698485

fc2.bias f4 [10]
00000000: 50f3 873e 45ee 34be 81d4 38bd eb55 b0bd
00000010: 7d47 993a c02a 05be c9ec edbb f903 b8be
00000020: ec68 dd3e 50b3 a93e
0.2655282 -0.17669018 -0.045124535 -0.086101376 0.0011694279 -0.13004589 -0.007260893 -0.3594053
0.43244112 0.33144617

exp_avg f4 [100, 784]
00000000: 0000 0000 0000 0000 0000 0000 0000 0000
00000010: 0000 0000 0000 0000 0000 0000 0000 0000
00000020: 0000 0000 0000 0000 0000 0000 0000 0000
00000030: 0000 0000 0000 0000 0000 0000 0000 0000
00000040: 0000 0000 0000 0000 0000 0000 0000 0000
00000050: 0000 0000 0000 0000 0000 0000 0000 0000
00000060: 0000 0000 0000 0000 0000 0000 0000 0000
00000070: 0000 0000 0000 0000 0000 0000 0000 0000
00000080: 0000 0000 0000 0000 0000 0000 0400 0080
00000090: 0400 0080 0400 0080 0400 0080 0000 0000
000000a0: 0400 0000 0400 0000 0400 0000 5ce5 5415
000000b0: 937a 1116 ec61 8a15 0400 0000 0400 0000
000000c0: 0400 0000 0000 0000 0000 0000 0000 0000
000000d0: 0000 0000 0000 0000 0000 0000 0000 0000
000000e0: 0000 0000 0000 0000 0000 0000 0000 0000
000000f0: 0000 0000 0000 0000 0000 0000 0400 0080
00000100: 0400 0000 0400 0080 1c4c a41c edda 6ca3
00000110: 6679 71a5 8a7f 40a5 ea05 24a4 5435 1a03
00000120: eee1 ff16 e832 b118 866c 5e18 4bdd 2d15
00000130: 1bf0 9f92 0400 0000 0400 0000 0400 0000
00000140: 0400 0080 0400 0080 0000 0000 0000 0000
00000150: 0000 0000 0000 0000 0000 0000 0000 0000
00000160: 0000 0000 0000 0000 0400 0000 229e 3d1f
00000170: 0ebb a421 5b35 1622 5be4 b529 db7e 0c33
00000180: 3b14 d133 8310 ef35 f8d3 f1b6 7195 9e36
00000190: 5d07 2e39 d876 2939 ed42 4539 7396 9a37
000001a0: 8b22 daae 2c0e 83ad 3de0 eb8e 7b2c 5f87
000001b0: 0400 0080 0400 0080 0000 0000 0000 0000
000001c0: 0000 0000 0000 0000 0000 0000 0400 0000
000001d0: 0400 0000 0400 0000 1243 5604 8672 732c
000001e0: 9fea 1522 1c9a 1622 736b 082a 597e 1c33
000001f0: 118f c733 a796 42b8 0470 de36 0d92 9639
00000200: 730a 803a a5e8 4439 dcfa 153b 3350 543c
00000210: 3010 f63b 7702 fcaf 6b5c cdac 9c46 582d
00000220: 8698 cc2d 1b0f 702c 0400 0000 0400 0000
00000230: 0000 0000 0000 0000 0400 0000 0400 0000
00000240: 0400 0000 c4f1 aa29 a091 7d3a 28e3 983a
00000250: f7ec be38 909c 4d2a 3847 7e32 e114 3d38
00000260: 4439 a638 aa34 3f3c d68d 7e3c df56 563c
00000270: ea70 1f3b ed0a 43bb 53dd e23b b9ed 633c
00000280: 5061 543c 7c83 1b3b 5f84 42b7 9970 1fb6
00000290: 8282 bd33 7796 3216 0400 0000 0000 0000
000002a0: 0000 0000 0000 0000 ea88 b98c 6038 d1a5
000002b0: f215 56a6 9612 243a 33c8 063a 2e59 103a
000002c0: a1b2 9839 29be ea38 94df fbb9 9582 9f3b
000002d0: 3463 823c 3ddf b53c e1c6 bc3c 4a43 c63c
000002e0: e80f 9f3c dfb8 003c 5207 723c 2418 983c
000002f0: 32e0 803b e4af 0eba 286e 4bb7 3dd2 89b6
00000300: 56ad 0a34 2619 5616 0400 0000 0400 0080
00000310: 0000 0000 0400 0080 a7c8 cb8c 3829 afa4
00000320: 4160 de2b 3cef bb39 18fb f739 67f8 1e3a
00000330: 5fc0 a13a 0717 4339 8991 a33b 2d11 853c
00000340: 0feb cb3c 1b5d aa3c dac3 913c 2296 c33c
00000350: 60eb cb3c 9870 5b3c 39f3 a13c 8e25 863c
00000360: ee34 c23a 47fe 16ba de58 29b7 d8cc 3db6
00000370: 76e1 78b3 0e05 7fb3 0400 0080 0400 0000
00000380: 0000 0000 0400 0080 0400 0080 7f6d d6aa
00000390: baac b0b0 fc12 48b2 8899 223a b89b 8a3a
000003a0: cb77 b339 7f4d 123b 37f1 9f3c 0a11 e63c
000003b0: 3775 9b3c dbcc 853c 6907 913c 0034 663c
000003c0: f37a e73c fa0d d53c 1f2b c13c ca6f 533c
000003d0: 9f31 f03b ab81 783b a79f d0b6 26b9 9135
000003e0: 06f9 68b2 25e5 02b2 0400 0080 0400 0000
000003f0: 0000 0000 8f73 9eb2 0400 0080 b7a0 46aa
0.0 0.0 0.0 0.0 0.0 0.0 0.0 0.0
0.0 0.0 0.0 0.0 0.0 0.0 0.0 0.0
0.0 0.0 0.0 0.0 0.0 0.0 0.0 0.0
0.0 0.0 0.0 0.0 0.0 0.0 0.0 0.0
0.0 0.0 0.0 -6e-45 -6e-45 -6e-45 -6e-45 0.0
6e-45 6e-45 6e-45 4.2993992e-26 1.1751684e-25 5.589225e-26 6e-45 6e-45
6e-45 0.0 0.0 0.0 0.0 0.0 0.0 0.0
0.0 0.0 0.0 0.0 0.0 0.0 0.0 -6e-45
6e-45 -6e-45 1.0872283e-21 -1.2839945e-17 -2.0944549e-16 -1.6696557e-16 -3.556684e-17 4.531775e-37
4.1340054e-25 4.580483e-24 2.8747618e-24 3.511164e-26 -1.0093501e-27 6e-45 6e-45 6e-45
-6e-45 -6e-45 0.0 0.0 0.0 0.0 0.0 0.0
0.0 0.0 6e-45 4.015311e-20 1.1162585e-18 2.0357037e-18 8.077628e-14 3.2711664e-08
9.736001e-08 1.7811693e-06 -7.207036e-06 4.726164e-06 0.00016596676 0.00016161369 0.00018812316 1.8428289e-05
-9.919628e-11 -1.489927e-11 -5.8147906e-30 -1.6789727e-34 -6e-45 -6e-45 0.0 0.0
0.0 0.0 0.0 6e-45 6e-45 6e-45 2.5186376e-36 3.459595e-12
2.0317473e-18 2.0410376e-18 1.2116505e-13 3.6436493e-08 9.292683e-08 -4.639351e-05 6.629156e-06 0.00028719046
0.0009768739 0.00018778683 0.002288512 0.012958574 0.007509254 -4.5840284e-10 -5.836711e-12 1.2293857e-11
2.3259849e-11 3.4114437e-12 6e-45 6e-45 0.0 0.0 6e-45 6e-45
6e-45 7.591456e-14 0.0009672884 0.0011664378 9.104044e-05 1.8261976e-13 1.4800939e-08 4.5080556e-05
7.9261634e-05 0.011670271 0.015536746 0.013082235 0.0024328777 -0.002976115 0.0069233566 0.013911658
0.012962654 0.0023729494 -1.1594121e-05 -2.3758387e-06 8.8247376e-08 1.4426204e-25 6e-45 0.0
0.0 0.0 -2.8586165e-31 -3.6293922e-16 -7.4275906e-16 0.0006258873 0.00051415263 0.0005506453
0.00029124788 0.000111934096 -0.0004804103 0.0048678615 0.015916444 0.022201175 0.023044052 0.024202008
0.019416764 0.007856577 0.014772253 0.018566199 0.003932976 -0.000544308 -1.2125391e-05 -4.107393e-06
1.2915311e-07 1.7294718e-25 6e-45 -6e-45 0.0 -6e-45 -3.1397866e-31 -7.596398e-17
1.5800765e-12 0.00035845663 0.0004729859 0.00060642365 0.0012340656 0.00018605228 0.0049917144 0.016243542
0.024892358 0.02079635 0.017793585 0.0238753 0.024892509 0.013393544 0.019769298 0.01637533
0.00148168 -0.0005759936 -1.0093876e-05 -2.828243e-06 -5.7947055e-08 -5.937641e-08 -6e-45 6e-45
0.0 -6e-45 -6e-45 -3.8090015e-13 -1.2854777e-09 -1.1645849e-08 0.00062026875 0.0010574972
0.00034230793 0.0022324023 0.0195242 0.028084297 0.01897679 0.016333034 0.017703729 0.014050484
0.028256869 0.026007641 0.023580132 0.012905071 0.007330134 0.0037919085 -6.217469e-06 1.0857227e-06
-1.3560799e-08 -7.619097e-09 -6e-45 6e-45 0.0 -1.844617e-08 -6e-45 -1.7641692e-13

exp_avg_sq f4 [100, 784]
00000000: 0000 0000 0000 0000 0000 0000 0000 0000
00000010: 0000 0000 0000 0000 0000 0000 0000 0000
00000020: 0000 0000 0000 0000 0000 0000 0000 0000
00000030: 0000 0000 0000 0000 0000 0000 0000 0000
00000040: 0000 0000 0000 0000 0000 0000 0000 0000
00000050: 0000 0000 0000 0000 0000 0000 0000 0000
00000060: 0000 0000 0000 0000 0000 0000 0000 0000
00000070: 0000 0000 0000 0000 0000 0000 0000 0000
00000080: 0000 0000 0000 0000 0000 0000 abed b218
00000090: bfec 4e1e f5e8 f71d c3eb ea1c 0000 0000
000000a0: 97b8 d933 acd8 b733 9f98 1f2f 354e b536
000000b0: e056 2938 3a2c 1937 b23e 0b27 d771 c827
000000c0: 1598 6925 0000 0000 0000 0000 0000 0000
000000d0: 0000 0000 0000 0000 0000 0000 0000 0000
000000e0: 0000 0000 0000 0000 0000 0000 0000 0000
000000f0: 0000 0000 0000 0000 0000 0000 c99f 021d
00000100: f720 712e f741 f532 8994 8833 1bc9 3934
00000110: 9697 5036 fd67 4d36 a34c 8f35 c8d5 3333
00000120: 0386 bd35 dc14 0b34 ada2 8a33 fa8c 912f
00000130: 5d74 aa2f 8edd 3c31 034e ae32 ad3b 2733
00000140: dd60 aa32 2732 2b22 0000 0000 0000 0000
00000150: 0000 0000 0000 0000 0000 0000 0000 0000
00000160: 0000 0000 0000 0000 b8c9 6430 2b4b c735
00000170: f45c ef35 9dac 6137 d5cd 1937 0cc8 8c38
00000180: 3bab 0d38 bf7b 6e38 74c9 9a39 d463 5939
00000190: 52f9 4b39 283b b039 9a68 c639 3735 6538
000001a0: cbca 4738 433a 1d38 b46e 8c34 ce66 0834
000001b0: 1f42 d133 7eb5 821f 0000 0000 0000 0000
000001c0: 0000 0000 0000 0000 0000 0000 a884 8b2e
000001d0: ad87 8b2c 9143 ce2f 31cd 2732 7eb3 8f35
000001e0: bde0 d935 ad1c cf37 800a 8638 5925 ef38
000001f0: 8fe4 6839 d810 1e3a f2bf 903a 916d c63a
00000200: 6a43 e13a 154a 023b 6118 aa3a 06e4 6a3a
00000210: 73c1 d739 4529 ba38 3246 e437 91c8 f938
00000220: c70f a739 5c42 f236 133e af33 9023 8931
00000230: 0000 0000 0000 0000 c47e 8124 3c35 442f
00000240: 619a fa2b 191f e836 c5e0 f636 0bce 3c37
00000250: 30be cf38 9592 3e39 5b59 9d39 c4f8 053a
00000260: acaa 4f3a 50c4 d23a 558d 2d3b edfc 733b
00000270: bdcf 853b 714e 823b bf73 573b 24b6 fb3a
00000280: d6ee a53a 5681 253a cbdb e239 eb7e ca39
00000290: 73c3 6638 5e7d 7535 88b4 e431 0000 0000
000002a0: 0000 0000 0000 0000 b8eb 7b32 fab1 7032
000002b0: 189c cb31 99ff c936 9ad5 9038 6d7c 0939
000002c0: 587e aa39 3270 113a 3860 803a 3993 a63a
000002d0: 60c8 f43a 32f0 423b c22e 9c3b 2fb4 c73b
000002e0: 2a0a d83b 6347 bd3b 9491 993b 2aca 643b
000002f0: e2db 013b 3dc4 6d3a a7c3 8939 1e58 2338
00000300: 4307 6a36 3a73 e435 1244 1e33 6ee3 ac2e
00000310: 0000 0000 c1dc ea31 d534 1a34 e4c4 2c34
00000320: 2b90 a435 6a3a 4538 d360 2039 e3e0 b139
00000330: 3dc6 1e3a e4ad 583a 43ef a73a ac53 fe3a
00000340: 2c6d 423b fdab 973b f2e2 df3b 3719 003c
00000350: 442e 093c daa1 e73b 05cc ba3b 59ac 7a3b
00000360: a16c ec3a fce6 223a 903c 3839 8944 c137
00000370: c0cf 4d37 941e c736 b192 4e34 4348 c52f
00000380: 0000 0000 0dd4 9c31 1270 1433 6b94 3834
00000390: 9e86 0736 1e66 8238 1240 6539 499b bf39
000003a0: 5492 193a 2f7b 6e3a 27ac 9e3a 3fb4 ec3a
000003b0: 234d 603b 91c0 b73b 7884 ec3b a6d5 083c
000003c0: 6868 0c3c 46fb e83b dc7f b03b e61a 533b
000003d0: a02f ae3a e112 1f3a 9db7 4c39 843e c638
000003e0: b10e 6038 4d92 0738 ed97 7d34 d436 8e30
000003f0: 0000 0000 ca55 ed32 4a49 9d31 72be 7234
0.0 0.0 0.0 0.0 0.0 0.0 0.0 0.0
0.0 0.0 0.0 0.0 0.0 0.0 0.0 0.0
0.0 0.0 0.0 0.0 0.0 0.0 0.0 0.0
0.0 0.0 0.0 0.0 0.0 0.0 0.0 0.0
0.0 0.0 0.0 4.6251905e-24 1.0954507e-20 6.5621228e-21 1.5545764e-21 0.0
1.01384266e-07 8.561014e-08 1.4515188e-10 5.403325e-06 4.037365e-05 9.129808e-06 1.9324112e-15 5.5634577e-15
2.0261056e-16 0.0 0.0 0.0 0.0 0.0 0.0 0.0
0.0 0.0 0.0 0.0 0.0 0.0 0.0 1.7287964e-21
5.4826334e-11 2.8551751e-08 6.360012e-08 1.730263e-07 3.108265e-06 3.060791e-06 1.0676634e-06 4.1871118e-08
1.41206e-06 1.2952972e-07 6.455716e-08 2.6475516e-10 3.10055e-10 2.748354e-09 2.0291742e-08 3.8936992e-08
1.9834653e-08 2.3201372e-18 0.0 0.0 0.0 0.0 0.0 0.0
0.0 0.0 8.3232576e-10 1.4848532e-06 1.783394e-06 1.3451235e-05 9.167435e-06 6.712982e-05
3.377649e-05 5.685887e-05 0.00029523263 0.00020731922 0.00019452468 0.0003361341 0.00037843437 5.4647415e-05
4.7634163e-05 3.7485977e-05 2.615758e-07 1.2703387e-07 9.744348e-08 5.5357395e-20 0.0 0.0
0.0 0.0 0.0 6.344553e-11 3.9656806e-12 3.751919e-10 9.7673345e-09 1.0706569e-06
1.6233167e-06 2.4689676e-05 6.391574e-05 0.000114033646 0.00022210389 0.00060297316 0.0011043532 0.0015138855
0.0017186229 0.0019880582 0.0012977236 0.000896037 0.00041152127 8.876858e-05 2.7212405e-05 0.00011910604
0.00031864477 7.2198873e-06 8.160364e-08 3.9912678e-09 0.0 0.0 5.615958e-17 1.7845009e-10
1.7806417e-12 6.917759e-06 7.357538e-06 1.1253646e-05 9.905954e-05 0.00018174418 0.0003001195 0.00051106163
0.00079218554 0.0016080234 0.0026481946 0.0037229613 0.004083602 0.003976636 0.0032875387 0.0019204062
0.001265968 0.0006313523 0.00043269838 0.00038623004 5.50183e-05 9.1452046e-07 6.6561974e-09 0.0
0.0 0.0 1.4663719e-08 1.4010306e-08 5.9258234e-09 6.0200223e-06 6.9062415e-05 0.0001311169
0.0003251906 0.00055480294 0.00097943 0.0012708671 0.0018675439 0.0029745218 0.004766316 0.0060944776
0.0065930085 0.005776332 0.0046865437 0.0034910538 0.0019814898 0.00090700743 0.0002627645 3.8944294e-05
3.4872944e-06 1.7020859e-06 3.684915e-08 7.862054e-11 0.0 6.835393e-09 1.4361588e-07 1.6090377e-07
1.2260911e-06 4.7022862e-05 0.00015294859 0.00033927624 0.00060567615 0.0008265658 0.0012812394 0.0019403598
0.0029667122 0.004628657 0.006832474 0.007818512 0.008372847 0.0070688548 0.0057005906 0.00382497
0.0018037745 0.0006214229 0.00017570169 2.3039307e-05 1.2267323e-05 5.934222e-06 1.9238611e-07 3.5885436e-10
0.0 4.564305e-09 3.4560863e-08 1.719033e-07 2.0194925e-06 6.217904e-05 0.0002186301 0.00036546055
0.00058582914 0.0009097335 0.0012105749 0.0018059089 0.0034225665 0.0056076725 0.00721794 0.008351719
0.008569814 0.0071100323 0.005386336 0.0032212078 0.001328934 0.0006068182 0.00019523357 9.45302e-05
5.3419444e-05 3.232276e-05 2.3617731e-07 1.0347443e-09 0.0 2.7629444e-08 4.5776334e-09 2.260729e-07

exp_avg f4 [100]
00000000: 8d5d 2839 3be9 0bb7 0400 0000 2417 b526
00000010: 0c6e 2927 a0e8 5616 5913 8285 b22b 5709
00000020: 0400 0000 38ac 19b7 e28f 0138 0400 0000
00000030: 525b 7285 97e1 8f10 4e25 5739 6509 10b6
00000040: 1a18 9636 dd15 f2b5 3d5d 48b0 cc7d 6ea4
00000050: 0400 0000 0400 0000 6129 54b9 68d9 0baf
00000060: 61b4 2739 a38d bfb7 dbe4 4339 6017 2938
00000070: 0400 0000 c6a9 d8b3 0400 0000 0400 0000
00000080: 96ca 6338 0400 0000 7900 ed36 0400 0000
00000090: 0400 0000 e374 a436 2367 3bb9 0400 0080
000000a0: 0400 0080 0400 0000 b980 46b7 0400 0000
000000b0: 722f 9a04 36a8 8d8f f783 019a aedc 9cb8
000000c0: 6efa cf36 18d2 0eb6 84aa c723 401b 0738
000000d0: 0f5f 8d8a 0400 0080 0400 0000 e8c9 e637
000000e0: 0400 0000 0400 0000 54c6 1838 b2d6 33b1
000000f0: 00bb a238 0400 0000 0cc7 f6b5 10a6 03b6
00000100: ed3f 2db6 0c00 0000 1ece 2339 8999 9738
00000110: 8456 039a 0400 0000 0400 0000 6eef 7fb8
00000120: c766 08b2 ddea 9a37 0400 0000 38a3 2cb8
00000130: 5ce5 6caf 0400 0000 0400 0000 c95e 20ad
00000140: cb76 1039 0400 0000 3e7f 03b5 a16e b838
00000150: 32aa b0b8 0400 0000 27f7 e3b8 4976 a837
00000160: 60f6 b8ae 93dd cdb7 4b8b 4c8d 1d86 41b4
00000170: 9881 50a2 0400 0000 97ef a9ae aaa0 ed12
00000180: 0400 0000 ddcd c4a3 0400 0000 9728 52b8
0.00016056579 -8.339349e-06 6e-45 1.256567e-15 2.3513118e-15 1.7360186e-25 -1.2232248e-35 2.5900229e-33
6e-45 -9.159608e-06 3.0889998e-05 6e-45 -1.1395558e-35 5.675113e-29 0.00020517895 -2.146314e-06
4.473154e-06 -1.8036768e-06 -7.2892076e-10 -5.1714578e-17 6e-45 6e-45 -0.0002023331 -1.2719215e-10
0.00015993557 -2.2834929e-05 0.00018681904 4.031451e-05 6e-45 -1.00891654e-07 6e-45 6e-45
5.430969e-05 6e-45 7.0632054e-06 6e-45 6e-45 4.9011883e-06 -0.00017872131 -6e-45
-6e-45 6e-45 -1.183169e-05 6e-45 3.6248798e-36 -1.3968466e-29 -2.6783175e-23 -7.4797645e-05
6.1982346e-06 -2.128194e-06 2.164784e-17 3.2211887e-05 -1.3613563e-32 -6e-45 6e-45 2.7512157e-05
6e-45 6e-45 3.642433e-05 -2.6169968e-09 7.7595934e-05 6e-45 -1.8386359e-06 -1.9617182e-06
-2.5816219e-06 1.7e-44 0.00015621676 7.228839e-05 -2.7160052e-23 6e-45 6e-45 -6.1019724e-05
-7.939611e-09 1.8467597e-05 6e-45 -4.1160005e-05 -2.154556e-10 6e-45 6e-45 -9.1159936e-12
0.00013777164 6e-45 -4.8986465e-07 8.79441e-05 -8.424035e-05 6e-45 -0.00010870239 2.0082241e-05
-8.411116e-11 -2.4541083e-05 -6.303002e-31 -1.8023316e-07 -2.8257863e-18 6e-45 -7.72779e-11 1.49964095e-27
6e-45 -2.1337549e-17 6e-45 -5.0105704e-05

exp_avg_sq f4 [100]
00000000: 864b 6434 e7fa 7733 b1c3 762e 7820 c430
00000010: 6971 6232 6058 bf31 d9d0 932f 85b4 ce30
00000020: bc89 7031 bd1d 3432 a9b6 ab33 0186 a330
00000030: bbe7 9d2f 2f2a ae31 f0e1 c034 d2f3 b330
00000040: 9d27 e833 da40 5533 8167 db2f d906 1831
00000050: f2ad 4d2d 8f19 1031 9222 0b34 fa28 9132
00000060: 5662 7c34 0f78 4033 4930 d133 7c32 cd34
00000070: 7035 902f 8375 1032 14ae 0c2f e824 d42f
00000080: d1b8 5b33 f29b 0430 7a0e 6a33 5fb5 0a30
00000090: 828f c82e 201a 3033 a611 3734 67da 2b30
000000a0: 3bcc 5830 e3ac 5832 af0d aa34 cbd5 6031
000000b0: f7c7 0b32 2ddb 2f31 499e 0931 fe2e 4634
000000c0: 20f9 3134 a369 cd33 be85 6031 25ac a133
000000d0: 29c1 5031 4390 042f 8353 992e 02de ac33
000000e0: ad58 0a30 2f45 bd30 23cb 1a34 ab20 1433
000000f0: 4681 7a34 b4cf bd2e 945a aa32 9906 f732
00000100: 27c5 dd32 5665 1632 b7d7 4234 bece 5533
00000110: e71b 6232 9196 0f30 7662 9c2f 4f70 4c34
00000120: 9de2 7d31 a628 fd32 3973 7c30 9c98 1f34
00000130: 9abd 9031 20eb 322e 9463 5d2e ad68 ca31
00000140: f66e b934 1209 2a31 ff04 0e34 fd0c e434
00000150: 9401 8134 deef b932 b5fe b334 ffdc 4034
00000160: 9f7e 0a32 c4e8 c534 4635 1b31 1d37 1432
00000170: 3d57 452e c9c8 c82e 1305 4632 1bb8 de31
00000180: 04fa 1e31 4695 8132 37ec 7e2f bb5f 2234
2.126163e-07 5.7737363e-08 5.6107733e-11 1.4270105e-09 1.3180718e-08 5.5688787e-09 2.688754e-10 1.5039779e-09
3.500289e-09 1.0484141e-08 7.996034e-08 1.1897897e-09 2.8722788e-10 5.068862e-09 3.5927178e-07 1.3093262e-09
1.08105475e-07 4.965191e-08 3.9909412e-10 2.2122804e-09 1.16915245e-11 2.0969286e-09 1.295796e-07 1.6898856e-08
2.3505103e-07 4.4812676e-08 9.741104e-08 3.8220958e-07 2.6231417e-10 8.408622e-09 1.2794771e-10 3.85888e-10
5.1158e-08 4.824293e-10 5.4495537e-08 5.046185e-10 9.120439e-11 4.1001954e-08 1.7049624e-07 6.2519806e-10
7.887057e-10 1.2612165e-08 3.1674924e-07 3.2717817e-09 8.136332e-09 2.5590439e-09 2.0026099e-09 1.8457283e-07
1.6575041e-07 9.5652716e-08 3.2672314e-09 7.5284596e-08 3.0377783e-09 1.2056582e-10 6.972469e-11 8.049757e-08
5.0330123e-10 1.3771223e-09 1.4416268e-07 3.4488647e-08 2.3330094e-07 8.6316204e-11 1.9831795e-08 2.8757585e-08
2.581744e-08 8.75419e-09 1.8146135e-07 4.9780958e-08 1.3161276e-08 5.2237065e-10 2.8446195e-10 1.9039838e-07
3.694516e-09 2.9471561e-08 9.1840807e-10 1.4863548e-07 4.212507e-09 4.0681347e-11 5.0338025e-11 5.890874e-09
3.453967e-07 2.4743412e-09 1.3226598e-07 4.247776e-07 2.402927e-07 2.1645914e-08 3.3526672e-07 1.7961791e-07
8.0614475e-09 3.686347e-07 2.258575e-09 8.627265e-09 4.4870097e-11 9.1306136e-11 1.1526271e-08 6.4819807e-09
2.3134143e-09 1.5085458e-08 2.3185086e-10 1.5122252e-07

exp_avg f4 [10, 100]
00000000: 4d62 d83a 68f8 7435 0400 0000 720a 5825
00000010: 25be 9312 5200 0c19 1a00 0000 0909 3f0a
00000020: 0400 0000 758b 6139 3a06 a6bc 0400 0000
00000030: 0400 0000 b0a9 8012 ce18 da39 b65e d828
00000040: 4568 a5be 2864 6f37 eb46 a51d 1f8e 8d1b
00000050: 0400 0000 0400 0000 be8c 1f36 285d c927
00000060: 729f 94bd 33bb acbb 215b 6438 f655 c13c
00000070: 0400 0000 40e7 6234 0400 0080 0400 0000
00000080: 69f6 a0bd 0400 0080 89e5 6039 0400 0000
00000090: 0400 0000 83f8 0a38 c953 b938 0400 0000
000000a0: 0400 0000 0400 0000 726c 88bd 0400 0000
000000b0: 0400 0000 9d22 b308 4c3e 6515 3c8d d939
000000c0: 4c16 9d35 9a53 3836 c416 4010 0383 d138
000000d0: dde1 2d06 0400 0000 0400 0000 702b a83b
000000e0: 0400 0000 0400 0080 5c50 d23b 334b 972c
000000f0: d9b7 9d3a 0400 0000 cb5c 0b3a 1792 82bb
00000100: 3987 8435 0400 0000 2d86 e3bd 2d9c 9135
00000110: 7b02 ec1f 0400 0080 0400 0000 06f8 36be
00000120: d822 e719 c637 ff37 0400 0080 f262 03b9
00000130: 4a2a 1414 0400 0000 0400 0000 7c0d c62c
00000140: 0ef9 baba 0400 0000 2e04 7b37 cf2f 053a
00000150: 4b47 e136 0400 0080 17d8 4f3c 8b5b f239
00000160: c60b da24 9ce6 eeba 8ce7 0b10 9639 9a35
00000170: e33f 22a6 0400 0000 9331 0a28 4246 ff11
00000180: 0400 0000 fca1 252a 0400 0080 51e5 f63b
00000190: 05f7 23be c323 e1bb 0400 0080 b3fe 2627
000001a0: 0236 ae27 2ecc ea16 0400 0000 e208 7f0e
000001b0: 0400 0000 7540 ba39 3ee0 e638 0400 0000
000001c0: 32f9 e687 990b 0200 e8c0 5fbd 9777 78ba
000001d0: bbbe 6b37 4952 4f31 1946 1b2e 764f 5427
000001e0: 0400 0000 0400 0000 774c bfbe 5fe4 8d30
000001f0: ae4c a33a ca06 3e37 e3f7 0c3c ae76 15bc
00000200: 0400 0080 3779 ae2e 0400 0000 0400 0000
00000210: 32cb 363a 0400 0000 70d9 3a33 0400 0080
00000220: 0400 0000 ed8c c833 b43e 963d 0400 0080
00000230: 0400 0000 0400 0080 6b79 913b 0400 0000
00000240: 5d9b 4c00 348a 6403 a482 fe0a 9df8 dc3b
00000250: d526 5abe 2608 1739 2b92 00a4 74f3 50bc
00000260: 2d1d de04 0400 0000 0400 0080 ec1f a6be
00000270: 0400 0000 0400 0000 67e1 c9be 71b0 a8b6
00000280: 9b80 e7bd 0400 0000 fa50 072f 47a1 fe35
00000290: 72ed 3534 0400 0000 8d81 12bb 2049 07bd
000002a0: 0400 0000 0400 0000 0400 0000 154f d33a
000002b0: bc63 e330 9d3e 9f3b 0400 0000 b4a0 043a
000002c0: 9a12 282a 0400 0000 0400 0000 735b 3e2c
000002d0: 2b9a 02be 0400 0000 2d9e a6b8 6f77 2ebf
000002e0: 40f2 d13c 0400 0000 2138 5e3e d9f5 9d3c
000002f0: 4d10 0c32 83e1 253a 770a 2101 bff4 922e
00000300: 83e3 8613 0400 0000 62da 252c 1c68 a713
00000310: 0400 0000 8d31 581f 0400 0000 2dff 68be
00000320: b2df 993c c9f9 033a 0400 0080 c20c 9224
00000330: f44f 0729 1b62 4f19 6c26 3b00 80f0 f70b
00000340: 0400 0000 de4a 0c3a 1284 be38 0400 0000
00000350: 80d4 0800 bf79 0400 9e7f f7bb ddde 8e2d
00000360: eb50 5c39 dd4c e1bc d0d9 7534 752a fa27
00000370: 0400 0000 0400 0080 b3d9 b53e 6a2e b0b2
00000380: e6d3 143e 2ee8 4339 8b23 2e3b 0b13 b73c
00000390: 0400 0000 42ce ee33 0400 0000 0400 0080
000003a0: 9c87 31be 0400 0000 8c37 2836 0400 0000
000003b0: 0400 0000 4d6c 28bc 7380 843a 0400 0000
000003c0: 0400 0000 0400 0080 6d13 4e3f 0400 0000
000003d0: fa29 5505 00f2 8d95 a4a6 0100 320b 403e
000003e0: 037a 1cbc 78d8 bb3a f45e 0328 66f4 3738
000003f0: 5af5 0d0c 0400 0080 0400 0080 136a b03e
0.0016508788 9.125856e-07 6e-45 1.8738553e-16 9.3238785e-28 7.237895e-24 3.6e-44 9.198015e-33
6e-45 0.00021509624 -0.020266641 6e-45 6e-45 8.119767e-28 0.0004159868 2.4021892e-14
-0.32306114 1.426883e-05 4.3748464e-21 2.3418337e-22 6e-45 6e-45 2.377477e-06 5.5889707e-15
-0.07256974 -0.0052713393 5.4444306e-05 0.02360056 6e-45 2.1132018e-07 -6e-45 6e-45
-0.07859499 -6e-45 0.00021447813 6e-45 6e-45 3.313321e-05 8.8370936e-05 6e-45
6e-45 6e-45 -0.06661309 6e-45 6e-45 1.0781308e-33 4.6295325e-26 0.00041494693
1.1703901e-06 2.74668e-06 3.788286e-29 9.9902994e-05 3.2703622e-35 6e-45 6e-45 0.0051321313
6e-45 -6e-45 0.006418271 4.300027e-12 0.001203294 6e-45 0.00053162564 -0.0039847004
9.874121e-07 6e-45 -0.111095764 1.0848795e-06 9.995399e-20 -6e-45 6e-45 -0.17868051
2.3898913e-23 3.042434e-05 -6e-45 -0.00012529994 7.4804305e-27 6e-45 6e-45 5.6289955e-12
-0.0014264898 6e-45 1.4961739e-05 0.00050806714 6.713822e-06 -6e-45 0.012685797 0.00046226042
9.4562374e-17 -0.0018226686 2.7591294e-29 1.1490654e-06 -5.6291623e-16 6e-45 7.6712886e-15 4.0275206e-28
6e-45 1.4711144e-13 -6e-45 0.007534661 -0.16012199 -0.006870718 -6e-45 2.31752e-15
4.8353257e-15 3.7933594e-25 6e-45 3.1435454e-30 6e-45 0.0003552471 0.00011009023 6e-45
-3.4753018e-34 1.87831e-40 -0.05462733 -0.00094782695 1.4051499e-05 3.0169238e-09 3.530518e-11 2.9463986e-15
6e-45 6e-45 -0.37363026 1.0324007e-09 0.0012458765 1.1326463e-05 0.008604023 -0.009122534
-6e-45 7.934136e-11 6e-45 6e-45 0.00069730275 6e-45 4.3504258e-08 -6e-45
6e-45 9.33886e-08 0.073361784 -6e-45 6e-45 -6e-45 0.004439523 6e-45
7.035232e-39 6.7161827e-37 2.4508452e-32 0.006743504 -0.21303876 0.00014403518 -2.7879385e-17 -0.012753356
5.2218743e-36 6e-45 -6e-45 -0.3244623 6e-45 6e-45 -0.3942978 -5.0273306e-06
-0.113038264 6e-45 1.2306947e-10 1.8971413e-06 1.694332e-07 6e-45 -0.002235505 -0.03302872
6e-45 6e-45 6e-45 0.0016121591 1.654477e-09 0.004859759 6e-45 0.0005059347
1.4927851e-13 6e-45 6e-45 2.7051388e-12 -0.12754123 6e-45 -7.944959e-05 -0.6815099
0.02562821 6e-45 0.21701099 0.019282268 8.152779e-09 0.00063278544 2.9578538e-38 6.682787e-11
3.40507e-27 6e-45 2.3569137e-12 4.2259387e-27 6e-45 4.5780767e-20 6e-45 -0.22753592
0.018783424 0.00050344743 -6e-45 6.333902e-17 3.004537e-14 1.07214614e-23 5.432077e-39 9.5502803e-32
6e-45 0.0005351732 9.084506e-05 6e-45 8.10915e-40 4.11016e-40 -0.007553055 1.6242502e-11
0.00021010979 -0.027502472 2.2896643e-07 6.943497e-15 6e-45 -6e-45 0.35517654 -2.0510203e-08
0.14533958 0.00018683143 0.0026571478 0.022347948 6e-45 1.1120257e-07 6e-45 -6e-45
-0.17336887 6e-45 2.5066283e-06 6e-45 6e-45 -0.010279727 0.0010109082 6e-45
6e-45 -6e-45 0.8049839 6e-45 1.0022922e-35 -5.7331255e-26 1.51615e-40 0.1875427
-0.009550574 0.001433148 7.2925505e-15 4.3858214e-05 1.0936078e-31 -6e-45 -6e-45 0.34455928

exp_avg_sq f4 [10, 100]
00000000: 22b9 a23c 6445 bf38 5f07 8731 5438 4538
00000010: 467d 4f37 fec9 a338 ffa3 9f36 c943 be38
00000020: 9e04 d238 3250 b03a d487 2d3e bd21 d037
00000030: c425 5735 8fb8 aa38 182c 763d 598d 2836
00000040: 413d 493f c0a4 f63a 25ce 8436 5969 3b38
00000050: 9ff8 3b34 4e9c 6f38 24db a738 53a2 6239
00000060: 9d8f 6e3c 75f3 1e3e e1aa c13a 36fd 603e
00000070: bfd8 4e35 79bb 2c37 7aab 0e38 d692 b536
00000080: 3d8e 403e 39b9 b838 f360 df3d 48ca f836
00000090: d6b9 1b33 f88a b13d bffa 2d3d f5c9 3c38
000000a0: 45fe cd38 9799 a138 fee1 a33f a557 2436
000000b0: 9980 053b 5625 3937 9c66 2d37 6ed0 933d
000000c0: 5693 bd3a 9bd4 a03a b9a7 ed36 eb0d d439
000000d0: b3cc c137 afb8 2838 da06 3734 4f85 d43a
000000e0: e895 0835 1f83 1338 39be 203e 53e3 7635
000000f0: 4b27 a33c 1033 7f31 9c30 863a fc5b 453e
00000100: d5ff 8d3b 8ba9 ce3b a3c8 b93d 42bb ab3c
00000110: 8060 903b cc0d b436 63ae 4835 f9bd 4940
00000120: 880e 0e37 f085 a738 debd 6138 0bae 2b3e
00000130: 0bd1 5b39 007b b632 53f3 bb35 3ccd 303a
00000140: 8469 423d 6f54 8d38 05a4 1b3b 4aa8 273d
00000150: dbbd ff3c 2531 0235 3c86 b23f 7bcb ab3a
00000160: 569b 3938 196f 443c 739e 183a a84d 8b3a
00000170: fd4b 8837 f3af 3c36 5d56 2239 9385 3c39
00000180: 63d0 8e38 b894 533b d7dd cb37 eff4 953d
00000190: ee95 d03f c07d 5b3d e586 4936 b1f8 2f36
000001a0: dd94 1a3b 4ea3 9437 203d ca34 e60e b13a
000001b0: 09c0 1c38 f8c6 903a 609c a43a a5c8 ab36
000001c0: 5e4e b337 8477 3339 3b8e 0a3e e570 7737
000001d0: f8f9 8b39 145d 6039 a77b d535 7b19 d538
000001e0: 9a14 eb34 298f 8c37 212a 693e 9044 043c
000001f0: 8002 5f3d 4550 9b39 a6b8 8a3c f04b 2d3e
00000200: 5629 5437 c178 bc36 f0b3 b335 4865 3e36
00000210: 6942 ac39 bd66 6f38 fdac d936 23ed 3238
00000220: 90c0 5736 817c 7f3b 33ce 743e 6051 6537
00000230: e82f 0039 1fc6 9439 bd55 c73d 5296 a035
00000240: 46e3 0735 128f 8c3a 1a59 1837 f905 0d3d
00000250: 136d 543e 3a0d 5f3d de5b 983a d25d 983e
00000260: 6f1b e036 7467 1337 cbd4 2137 6507 d33e
00000270: f18c cf36 9d2b b436 e0cf 443f b043 a43d
00000280: 9580 123e b486 2635 2fe7 703a c113 4c39
00000290: 4d2a 8338 a654 9b37 d178 5d3c 7f68 2d3a
000002a0: c066 6535 81a6 6435 370f 3336 e835 323d
000002b0: d644 a437 97ed 3f3c b6a5 7836 3e92 a53c
000002c0: 208f fb38 d658 0535 7c05 a634 9f25 913a
000002d0: 527a ed3e 2468 9338 f332 2f3d 2a09 883f
000002e0: b721 c43d 60ec b636 ee24 bf3f 7b8e 8d3d
000002f0: d7f1 ec36 14f6 813c b92d 9a38 7e28 7e39
00000300: f094 f234 3a88 8835 d0f0 f737 904e 3938
00000310: 2dd3 ed38 6064 4335 8d3f 9035 cfff 553f
00000320: 2bd5 1a3e 21df 413b 432b ac35 93cd 8238
00000330: 87c6 cc3a 1002 a938 7857 0a37 253b 9c37
00000340: 0503 7a38 0f0d 013b b17b 1a3b 6226 dd37
00000350: d082 5c37 6d4e ad38 c523 613e 0232 0038
00000360: dc5b 343b 0d14 de3d e49b 9437 6e2a 0e39
00000370: c88b 2d34 2607 e138 4e31 b03d a229 d63a
00000380: fbbd e83f 52ad 033c 0ef8 a93b 1b97 b83f
00000390: 964a 4336 a28d 7137 4592 c437 9167 1f37
000003a0: 610d 503e a0b5 9538 0bf1 a038 8ad9 bd37
000003b0: 17fd 2436 0034 653d 63f8 123d b9b1 0138
000003c0: 8372 0939 a262 ff39 8207 4d40 cd17 5136
000003d0: cd1c 923a 07c4 0a3b 4526 2136 6599 8d3e
000003e0: f0ba 933d 7719 983d 53d4 223a ea83 7d3c
000003f0: 444a 0d3b f496 2c38 3b22 e135 0316 dd3e
0.019863669 9.120515e-05 3.929855e-09 4.702092e-05 1.2367329e-05 7.81007e-05 4.757661e-06 9.072532e-05
0.0001001444 0.0013451634 0.16946346 2.4811243e-05 8.01487e-07 8.1406084e-05 0.060100645 2.5116226e-06
0.7860909 0.001881741 3.957905e-06 4.4682387e-05 1.750618e-07 5.712761e-05 8.003999e-05 0.0002161351
0.014560607 0.15522559 0.0014775657 0.21971592 7.705639e-07 1.0295648e-05 3.401514e-05 5.4113143e-06
0.1880426 8.808304e-05 0.109071635 7.4145246e-06 3.6257767e-08 0.08669084 0.04247546 4.501078e-05
9.822523e-05 7.7056866e-05 1.2803342 2.448892e-06 0.002037084 1.1035552e-05 1.0335494e-05 0.07217489
0.0014463465 0.0012270393 7.082676e-06 0.0004044616 2.3102713e-05 4.022632e-05 1.7045696e-07 0.0016214045
5.088209e-07 3.5169647e-05 0.15697564 9.197294e-07 0.019916197 3.713641e-09 0.0010237875 0.1927337
0.004333476 0.006306832 0.090714715 0.020963315 0.004406035 5.366024e-06 7.475957e-07 3.15222
8.467243e-06 7.988128e-05 5.3821008e-05 0.16765611 0.00020963342 2.1243522e-08 1.4003402e-06 0.00067444495
0.04746391 6.739131e-05 0.0023748886 0.040931977 0.03121846 4.850029e-07 1.3947215 0.0013106907
4.4252105e-05 0.011989378 0.00058219506 0.0010628002 1.6247848e-05 2.81166e-06 0.00015481697 0.00017978837
6.809903e-05 0.0032284688 2.4302788e-05 0.07322108 1.6295755 0.05358672 3.0029853e-06 2.622179e-06
0.0023587265 1.771902e-05 3.7669906e-07 0.0013508468 3.7372145e-05 0.0011045625 0.001255881 5.119555e-06
2.1374955e-05 0.00017115293 0.13530819 1.4748633e-05 0.00026698387 0.00021396979 1.5905724e-06 0.000101613776
4.378715e-07 1.6755965e-05 0.22769977 0.008072987 0.054445744 0.0002962371 0.01693375 0.16923499
1.2645809e-05 5.616894e-06 1.3388908e-06 2.837116e-06 0.00032855876 5.7077723e-05 6.4872424e-06 4.2659358e-05
3.2149583e-06 0.0038984122 0.23906784 1.366841e-05 0.00012224878 0.00028376371 0.0973315 1.1964678e-06
5.0622145e-07 0.0010723791 9.080652e-06 0.034429524 0.20744734 0.054455973 0.0011624058 0.2975908
6.678914e-06 8.78597e-06 9.6458925e-06 0.4121658 6.1854885e-06 5.3694953e-06 0.7687969 0.08020723
0.14306863 6.203584e-07 0.00091897225 0.00019462315 6.254446e-05 1.8516857e-05 0.013517574 0.00066149974
8.545867e-07 8.5178914e-07 2.6681935e-06 0.04350844 1.9582378e-05 0.011714361 3.7051336e-06 0.020211335
0.00011995272 4.9675634e-07 3.09239e-07 0.0011073834 0.46382385 7.028904e-05 0.0427732 1.0627797
0.09576743 5.4515403e-06 1.4933145 0.069119416 7.061502e-06 0.01586441 7.351809e-05 0.00024238412
4.518438e-07 1.0172437e-06 2.9556832e-05 4.4180604e-05 0.00011340375 7.2789226e-07 1.0747332e-06 0.8359346
0.1512038 0.0029582458 1.282759e-06 6.237174e-05 0.0015623131 8.058932e-05 8.245806e-06 1.862419e-05
5.9607457e-05 0.0019691621 0.002357226 2.6363126e-05 1.3143479e-05 8.263891e-05 0.21986301 3.056415e-05
0.0027520573 0.10843668 1.7715567e-05 0.00013557982 1.6162733e-07 0.000107301676 0.08603154 0.0016339312
1.8182977 0.008036928 0.005187041 1.4421114 2.910068e-06 1.4397696e-05 2.3433133e-05 9.501252e-06
0.20317604 7.138704e-05 7.674292e-05 2.2631855e-05 2.4585222e-06 0.055957794 0.03588141 3.0921514e-05
0.00013107997 0.00048710877 3.2035832 3.115728e-06 0.0011147499 0.002117397 2.4013145e-06 0.27656093
0.0721339 0.07426732 0.00062114483 0.015473345 0.0021559158 4.114858e-05 1.6773769e-06 0.43180856

exp_avg f4 [10]
00000000: db84 3cbb 6df3 14bb cfec 853b 2fa7 853b
00000010: 7b64 7ebb 3ed5 d4ba 0842 103b 0267 4d3b
00000020: e789 c6bb 3b8a 523b
-0.0028765711 -0.00227281 0.0040870677 0.0040787677 -0.0038817215 -0.0016237868 0.0022012014 0.0031341915
-0.0060589197 0.0032125849

exp_avg_sq f4 [10]
00000000: 6f93 2d39 a72e 0d39 b9c7 a439 a741 c739
00000010: 8626 8c39 fb3f 9939 3644 6439 1726 8539
00000020: 0fec c139 f6f0 ba39
0.00016553489 0.00013464187 0.00031429323 0.00038005153 0.00026731583 0.00029230103 0.00021769185 0.00025396116
0.00036987706 0.00035656214
