3rd Task[SOLUTION]/lightning_logs/version_0/checkpoints/epoch=4-step=7500.ckpt (torch, 960254 bytes, 12 tensors)

fc1.weight f4 [100, 784]
000000 2e d1 bd 3b 28 ba ee 3c 1c 7d c2 bc 40 1a 06 bc
       0.0057927584 0.0291415 -0.023741297 -0.008184969
000010 17 b2 da bc 2e fc b0 3b c1 c7 5b bc ba 8e a0 bc
       -0.026696248 0.005401156 -0.013414324 -0.019599307
000020 b7 ca af 3a c1 3d 72 3c 85 d2 0b bd 41 b2 b5 bb
       0.0013411854 0.014785231 -0.034136314 -0.005544931
000030 15 f0 0f bd 7f e4 d5 bc ac d0 e8 bc 67 aa 35 3b
       -0.03514107 -0.026109932 -0.028419815 0.0027719976
000040 51 ec e5 3c 8c a5 9c bc 6a 2f 28 bc 35 6f fc 3c
       0.028066786 -0.019121908 -0.010265211 0.030814746
000050 4c 32 a4 bc 5e 47 de bc 1c 7a 73 bc 63 79 cf 3c
       -0.020043515 -0.02713364 -0.014860656 0.025326436
000060 d3 46 9d bb ca 45 21 bc 9c 32 cb 3b ee 24 e0 3b
       -0.0047997027 -0.009843299 0.0062011015 0.00684034
000070 7c 4d 88 bc 2a 4a ff 3c 3a 26 08 3d aa c7 ac bc
       -0.01663851 0.031163294 0.03323958 -0.021091301
000080 4b f2 eb bc 24 57 c0 3c 82 a6 3a 39 a1 4f 16 3c
       -0.028802058 0.023479052 0.00017800371 0.009174258
000090 18 2a 50 3d 0a 45 d8 3b 81 fc 24 3d 57 2b c0 bc
       0.050821394 0.006600027 0.04027987 -0.023458166
0000a0 56 27 3f bd 3b b1 dd bc d1 2f fd bc d6 17 e1 bc
       -0.046668373 -0.02706205 -0.03090659 -0.027477186
0000b0 c9 66 40 bd b1 53 14 bd 51 1a 67 3c 77 d4 8e bc
       -0.046973024 -0.036212627 0.014105395 -0.017435296
0000c0 8a 9e fc bb 42 ec 19 bd 8a eb 07 bd 89 80 ab bd
       -0.007709329 -0.03757883 -0.033183612 -0.083741255
0000d0 8a af ce bc bb fc 06 3d 95 0a e7 3c 05 2b fe bc
       -0.025230188 0.032955866 0.028203288 -0.031026373
0000e0 60 cb a0 bc 47 4b a9 bc 7a 25 78 bc 02 ad d9 bb
       -0.019628227 -0.020665778 -0.015145654 -0.0066429386
0000f0 1d d4 dd 3c 8c ae ba 3d 5c aa 67 bc fd e2 a1 3c
       0.027078683 0.091153234 -0.014139738 0.019761557
000100 57 a3 0a bd 8e c5 5b bd fc e6 08 bd b7 4b 9a bd
       -0.03384718 -0.0536552 -0.03342341 -0.07533973
000110 20 d8 dc 3c 64 c7 9e 3d 4b 24 87 3d aa 90 57 bd
       0.026958525 0.077528745 0.06598719 -0.052628197
000120 82 32 81 bd f5 ed e7 bc 1a 65 5b 3d ff 1f c8 3c
       -0.06308462 -0.028311709 0.053563215 0.02442932
000130 ec c0 53 bb dc d6 80 bd fc 57 3b bd 02 0e 8f bd
       -0.0032311035 -0.06290981 -0.045738205 -0.06985094
000140 11 56 b8 3d 72 34 7d 3c 6e 6d f4 bc 58 89 61 3c
       0.09000791 0.0154543985 -0.029837336 0.013765655
000150 6e 7c dc 3c 9c e6 96 bc dc 7a 00 bd b8 16 01 bd
       0.026914801 -0.01842051 -0.031367168 -0.031515807
000160 2b fe 57 bc 38 fe 60 3d dc 6a 3a bd b3 b9 5d bd
       -0.013183157 0.054929942 -0.045512065 -0.054132175
000170 af eb 95 bd 85 34 d6 bc 4a 88 d9 3c 24 00 dd 3a
       -0.07320344 -0.02614809 0.026554246 0.0016861004
000180 4c 69 b4 3b 43 04 1b bb f0 fb 4b 39 b1 10 73 bd
       0.0055057164 -0.0023653663 0.00019453443 -0.05934209
000190 fb 9e 85 bd 29 8d ee ba ef d4 16 3d 6e c4 31 bd
       -0.06524464 -0.0018200028 0.036824163 -0.04340022
0001a0 8d c5 9a 3c 64 8a 8e bc 6c 5c 55 3d ba 04 a3 3b
       0.018893028 -0.017399974 0.052090093 0.0049749287
0001b0 f4 72 99 bc e4 fd 67 3a a6 13 45 bb 78 6c e0 3c
       -0.018731572 0.00088497833 -0.0030071526 0.027395472
0001c0 da 82 ef 3c 26 43 af bc 1c 33 db bc 7d 6b a6 bd
       0.0292372 -0.021394324 -0.02675777 -0.081259705
0001d0 28 c1 38 bd 5c 6f d2 bd 93 8a ad bd 9f 54 f8 bc
       -0.045106083 -0.10275146 -0.084736966 -0.030313788
0001e0 d3 dd d2 bc 26 32 df bc 73 cc 37 bd d1 a8 c6 b9
       -0.02574054 -0.027245592 -0.044872712 -0.0003789128
0001f0 10 5c e3 bc d0 df 02 bd 07 b8 40 bd 76 85 06 bd
       -0.02775386 -0.031951725 -0.047050502 -0.032842122
000200 9e 7e 35 3b cf c8 ac 3c 40 a8 0a 3d 52 10 2f bb
       0.0027693878 0.021091847 0.033851862 -0.0026712609
000210 03 23 71 3d 70 f3 83 3d 71 37 db 3c 07 7b 1f 3c
       0.05887128 0.064429164 0.026759835 0.009733922
000220 28 9c 11 3d b6 a4 61 3c e7 79 1e bd 5c 71 d0 3c
       0.035549313 0.01377218 -0.038690474 0.025444679
000230 80 1a 86 bc 68 91 f1 3c 2f 77 35 bd 8e 4a 34 bd
       -0.016370058 0.02948828 -0.044303115 -0.044016413
000240 02 b3 30 bd 2f bc ec bc bb 5c ab bd 4e fd 57 bd
       -0.043139465 -0.028898327 -0.08367296 -0.052731805
000250 ce de 68 bd fd b9 85 bd f8 75 40 bd b0 91 97 bd
       -0.056853108 -0.06529615 -0.046987504 -0.074008346
000260 ad 0e 27 bd 9a 0e 25 bd c1 1f e5 bc d1 0f 60 bd
       -0.04078548 -0.04029713 -0.027969243 -0.054702584
000270 df da aa bd 29 d2 c4 bd e1 44 85 bd 3f cd 86 bd
       -0.083425276 -0.09610397 -0.06507278 -0.06582116
000280 68 d7 32 bd 31 65 e3 3c 2c e0 43 bd aa ea c6 bd
       -0.04366246 0.027758213 -0.04782121 -0.09712727
000290 c9 f3 21 bd c5 7e 83 bd 61 52 97 bd c7 0c 13 bb
       -0.039539132 -0.06420664 -0.073887594 -0.0022438036
0002a0 55 4f cc bc 25 18 05 bc 8c ee 9f bc ea c7 0f bc
       -0.024940172 -0.008123432 -0.019522928 -0.008775691
0002b0 31 44 44 bd c0 fd d9 3c 45 78 86 3d e8 72 8f 3d
       -0.047916595 0.026610255 0.06565908 0.070043385
0002c0 4e 70 4a 3c ec 70 d2 bd 1b 36 a4 bd 08 b0 1a 3c
       0.012355877 -0.102754444 -0.08018132 0.009441383
0002d0 0a be d2 3c b1 a2 c6 3c af 65 34 3d fd 1a 39 bd
       0.025725383 0.0242475 0.044042286 -0.045191754
0002e0 28 3d c5 ba 69 01 58 bc bd e2 69 3c ec 2f bb bb
       -0.0015048133 -0.01318393 0.01427525 -0.0057125
0002f0 60 08 85 bd dc 1c a5 bc 2f 99 0b 3d 88 83 21 bd
       -0.06495738 -0.020155363 0.034081634 -0.03943208
000300 0b 43 29 bc cf b0 e5 bc 2d 42 26 bd ab 2d 0b bd
       -0.010330926 -0.02803841 -0.040590454 -0.0339791
000310 13 3e 29 3b 6b be f2 bb 9a b5 5c 3d c2 95 a0 3c
       0.0025824353 -0.0074079535 0.053884126 0.01960266
000320 0d e6 39 3c b9 98 97 bc 9b 37 11 3d 7f a2 4c 3c
       0.011346352 -0.018505441 0.03545342 0.012489914
000330 f0 e8 8a 3a 31 70 54 3d 5e 64 01 3c 53 89 d7 3c
       0.0010597985 0.051864807 0.007897465 0.026310598
000340 e9 23 c3 bb 87 62 66 bc 06 bf 01 bd 45 12 5c bd
       -0.0059552086 -0.014061577 -0.031676315 -0.05372836
000350 dc bf 46 bd ad 16 9b 3b b5 fb 46 3c 81 32 a2 bc
       -0.048522815 0.004732928 0.012144973 -0.019799473
000360 12 eb 9d 3a b1 38 e7 3b 69 2b 08 3a 4d 37 df bb
       0.0012048206 0.0070563187 0.0005194457 -0.0068120123
000370 31 45 9b bc 17 5c 23 3d b2 88 96 bd 56 74 8e bd
       -0.018953891 0.039882746 -0.07350291 -0.06955783
000380 75 74 ae 3c 12 44 88 3d f6 7e a7 3a 7b 1a b5 3c
       0.021295765 0.066536084 0.0012778926 0.022107353
000390 97 d2 82 3d 9a 76 3e bd b7 31 71 3d 96 be 0f 3d
       0.06387823 -0.046499826 0.058885302 0.035093866
0003a0 76 bc 0e 3d e9 54 19 3c c2 80 7c bb 15 3f 98 bb
       0.0348477 0.009358623 -0.0038528894 -0.004646192
0003b0 64 36 21 3d 3a ac f7 3b fd ce b8 bc 1e 3a 6c 3c
       0.03935851 0.007558373 -0.022559637 0.014418153
0003c0 a0 3e 7c bd f4 26 4b bc 2d 3b ec bb 8a 61 8e bc
       -0.06158316 -0.012399424 -0.0072092027 -0.017380495
0003d0 c4 8c fc bc 35 b8 80 3c 4b 8b 61 bc eb ec 68 3c
       -0.030828841 0.015712837 -0.01376612 0.014216642
0003e0 83 34 14 bd b5 39 de bc 5e 13 a4 bc c9 4d 1b bd
       -0.03618289 -0.027127126 -0.020028766 -0.03791598
0003f0 1a fd b4 bc 07 3f 5c 3d 9f b6 a6 ba 1c 89 fa bb
       -0.022093344 0.053771045 -0.001271922 -0.0076457392

fc1.bias f4 [100]
000000 93 4d 4c bd 18 78 95 bd fa be 95 3b 3a 49 a4 bc
       -0.049878668 -0.07298297 0.0045698853 -0.020054448
000010 46 4c b3 bc 06 23 2f bd 6c 6b 9e bd 95 79 21 3c
       -0.021886956 -0.04275801 -0.07735333 0.009855648
000020 a7 51 a4 bd 91 ab 0d 3d eb 8b f9 bd 32 c8 97 bd
       -0.080233864 0.034587447 -0.1218489 -0.07411231
000030 f2 17 1c bd 4b 75 62 3d 4f 72 40 bd 93 14 c1 3c
       -0.038108774 0.05528764 -0.046984013 0.02356938
000040 07 b8 c2 bc 0a 88 9e bd 67 67 6a bd 7b 15 58 bd
       -0.023769392 -0.07740791 -0.05722752 -0.05275486
000050 94 f9 58 bc da fa 09 bd 6a a9 9c bd 93 44 9b bc
       -0.013243098 -0.033686496 -0.07649501 -0.018953597
000060 78 18 1f be a7 ce f8 bd 33 3f 98 bd 3e 78 c2 bd
       -0.15536678 -0.12148791 -0.07433929 -0.094955906
000070 f5 fb 51 bd 76 10 83 bd 01 54 77 bd 00 d5 a8 bd
       -0.051265676 -0.06399624 -0.060382847 -0.082437515
000080 ca 10 ca bd 2c 86 c8 bd 07 13 fa bc 15 52 22 bd
       -0.098664835 -0.09791216 -0.030526651 -0.03962906
000090 76 62 a4 bc 51 63 67 3c 50 0d ea bd 93 6c db bd
       -0.020066481 0.0141228 -0.114283204 -0.10714068
0000a0 0d 10 a0 3c 8e 87 ea bd c5 89 5f bd fe 7a df bd
       0.019538904 -0.11451636 -0.054574747 -0.10912131
0000b0 2f 78 36 bd d9 14 e3 bd 26 22 2d be 31 fd 2c 3c
       -0.04454821 -0.11087961 -0.16907558 0.010558412
0000c0 af e3 02 be f6 52 48 3d 92 f9 23 bd 0c 54 f1 bd
       -0.12782167 0.048907243 -0.04003293 -0.11783609
0000d0 21 69 59 3c b3 a8 d3 3c 43 be b9 bd 85 9f 9d bd
       0.013269694 0.025837278 -0.09069493 -0.076964416
0000e0 24 3b db bd ec 65 58 bb 20 32 00 be 37 0c 0a bd
       -0.107046396 -0.0033019735 -0.12519121 -0.033703055
0000f0 ab 80 90 bd fd 31 af 3d ae f6 6a bd 54 3b b4 bd
       -0.070557915 0.085544564 -0.05736416 -0.088003784
000100 98 d0 0c bd f3 1c d8 bd 16 90 23 3c 0c 9f be bd
       -0.034378618 -0.105523966 0.009983083 -0.093076795
000110 b1 2d 3e 3d c0 db 13 be 5a 15 87 bc 38 98 1b be
       0.046430293 -0.14439297 -0.016489673 -0.15194786
000120 c2 35 da bc ef e1 71 bd 1e aa d5 bc fc c6 5b bd
       -0.026636962 -0.059053358 -0.026082095 -0.053656563
000130 0d ca e9 bc 19 01 d4 bd 11 0c 0e be 51 01 1c bd
       -0.028538728 -0.10351772 -0.1387179 -0.038087193
000140 53 95 64 bc c5 58 95 bd 3a 05 cc bd 60 07 04 bd
       -0.013951617 -0.07292322 -0.099619344 -0.032233596
000150 7e eb e4 bb 2a 14 af bd 5a fd 89 3b d7 f5 f7 bd
       -0.0069860807 -0.08548768 0.00421111 -0.12107437
000160 50 12 da bc 72 39 2a bd 27 1f 5a bd 52 ab 31 bd
       -0.02662006 -0.04155869 -0.053252365 -0.043376274
000170 46 1e e3 bd d3 a8 2f be e1 93 e6 bd 12 72 17 be
       -0.110897586 -0.17154245 -0.112586744 -0.14789608
000180 db c5 20 be 69 a0 16 be 15 32 00 3d fa bf 47 bd
       -0.15700476 -0.14709629 0.031297762 -0.048767067

fc2.weight f4 [10, 100]
000000 b6 c1 06 bc 65 7b 15 bc a3 be 08 3d f7 97 97 3c
       -0.008224895 -0.009123658 0.03338493 0.01850508
000010 6f be e7 3c 97 c3 ac 3c c5 a8 b6 3c 6d fb a4 bc
       0.028289048 0.021089358 0.022297272 -0.02013942
000020 d1 cb 21 3b a4 8e c5 3b 7e 1d 37 bc 36 03 25 bc
       0.0024688134 0.006028967 -0.011176465 -0.010071566
000030 47 bc 28 3d 43 30 97 3c 2c 68 29 bd 70 e9 bb 3b
       0.04119518 0.01845563 -0.04135911 0.005734615
000040 3e c2 dd 3c 0f 25 cc 3c 61 dc 32 3c 63 2f 0c bd
       0.027070161 0.024920015 0.0109168 -0.03422488
000050 29 1f 42 bb 63 1e ad bb 59 3d 99 3c 2a a4 5b bc
       -0.0029620624 -0.0052831634 0.01870601 -0.013405839
000060 4d c2 bb 3b 10 63 9a bc e9 b0 92 bc fd 1d cb 3c
       0.0057299496 -0.018846065 -0.017906623 0.024794573
000070 bc 75 30 3d 84 a8 4f 3c 7a dc 2e bd 42 99 c5 3c
       0.04308103 0.012674455 -0.04269073 0.02412093
000080 5e db e4 bb 4c b0 d5 bc 3a a1 ee 3c 1b fc 8f 3c
       -0.0069841584 -0.026085041 0.029129613 0.017576268
000090 94 16 0b 3c 37 96 61 bb fe e4 e1 bb 33 41 d5 3b
       0.00848927 -0.003442181 -0.006893753 0.0065080165
0000a0 ab f4 43 3d 91 4b 2e 3d 30 4a 22 bc 67 7e 04 bc
       0.047840755 0.042552534 -0.009905383 -0.008086777
0000b0 d1 40 56 3d 43 9a 19 3a 92 10 1e 3c 7f be 6f 3d
       0.052307907 0.00058594736 0.009647505 0.05853128
0000c0 a7 f0 4c bd f8 f8 c2 3c ba ef 38 3d ff 15 2a 3d
       -0.05003419 0.023800358 0.045150496 0.041524883
0000d0 37 1a c3 bc 44 91 52 3c f5 83 5a 3c 5e f2 d3 ba
       -0.023816211 0.012852017 0.013337125 -0.0016170254
0000e0 b8 fc 76 bc dc 29 1c 3c 3d 88 72 3b 61 65 70 3a
       -0.015074901 0.009531464 0.0037007474 0.000917038
0000f0 56 4a d4 ba a2 2e b4 bc 62 b8 81 bd 7c 0f 28 3d
       -0.001619647 -0.021994893 -0.06333996 0.041030392
000100 c0 c7 8b 3c 72 cb 67 3c 83 86 f0 bb 4b 01 1c bc
       0.017063022 0.014147626 -0.007340254 -0.009521793
000110 19 82 1e 3d 01 9d 06 3c ec 45 2f bd 02 cf 9c 3c
       0.03869829 0.008216144 -0.042791292 0.019141678
000120 76 c0 32 bc 4f 25 39 bc 91 58 d9 b8 f5 93 fd bc
       -0.010910144 -0.011300399 -0.00010363863 -0.03095434
000130 cb 3f 37 3b f6 f9 b5 bc 30 71 9a bc 87 c9 e6 3b
       0.0027961608 -0.022213917 -0.0188528 0.007043067
000140 1b 21 02 3d 7d ab ed 3c 30 13 83 bd d1 05 23 3d
       0.031769853 0.029012436 -0.06400144 0.03980047
000150 cc c5 af 3b f7 34 82 bc 8d 42 ea bc 35 53 0b bd
       0.0053641554 -0.015894396 -0.028596187 -0.0340149
000160 1a 7b 9e 3c d7 0f 75 3c fc ea c8 3c f4 a0 4d bc
       0.019345809 0.01495739 0.024526112 -0.012550581
000170 18 3a 0c bc e9 b6 ad 3c bf 8c 00 3c 39 7f c8 3c
       -0.0085587725 0.021205382 0.0078460565 0.024474727
000180 66 d9 6f 3c 24 8e 6d 3c 3a 97 5a 3d 03 f1 0a bc
       0.014639234 0.014499221 0.053366877 -0.008480313
000190 0a cc 09 bc 63 6d 64 bb 71 3a 93 3c 77 aa c9 3b
       -0.008410463 -0.0034855239 0.017972203 0.006154354
0001a0 3d 96 c2 bb f8 b8 3a bc 70 9d 25 3c a8 79 53 3c
       -0.00593832 -0.011396639 0.010108337 0.012907423
0001b0 98 3b 98 3c c9 4d 1c bb 75 0e 36 3c 5f 54 da bb
       0.018583104 -0.0023850075 0.011111845 -0.00666289
0001c0 9e bd 37 b9 f8 3f 91 3c af ea 12 bc 04 a6 cb 3c
       -0.00017522878 0.017730698 -0.008967086 0.024859436
0001d0 92 e2 40 bb e8 fb 00 3d 8d 7d d0 3c 74 b7 06 bc
       -0.0029431921 0.031490237 0.025450492 -0.00822245
0001e0 e2 f6 25 bd 18 3d 51 bc 14 25 0d 3d b6 f2 88 bb
       -0.04051865 -0.012770914 0.03445919 -0.004179324
0001f0 9c 1e ec bb cf e2 48 bc 1a 33 a9 3c 0e c8 5e 3d
       -0.0072057974 -0.012261107 0.02065425 0.054390006
000200 3d 37 cd ba 02 fe e3 3c d1 b0 4b bc 39 67 ba 3c
       -0.0015656721 0.027831081 -0.012432293 0.022754299
000210 d3 b7 45 3d da 00 f5 bc 68 8f 0e 3d 26 cf 27 3d
       0.04827101 -0.029907633 0.03480473 0.040969037
000220 be 9e 16 39 a6 1c a9 bb b2 2f 63 bb c0 82 93 bb
       0.00014364251 -0.005160886 -0.003466588 -0.0045016706
000230 21 ce a3 3c 09 4a 34 3c aa b0 11 3c b1 83 4e 3a
       0.01999575 0.0110039795 0.008892218 0.00078779
000240 4d 60 9e 3c 28 b4 a0 3c ef 87 d6 3c d5 b8 85 3c
       0.01933303 0.019617155 0.026187865 0.016323486
000250 be 6f 60 bc 2d e8 86 3c e2 b1 f0 3b 5b b8 8c 3c
       -0.013698516 0.016468132 0.007345424 0.017177751
000260 f6 38 48 bc 28 80 17 3c 0e d0 33 3d 8c 63 db 3c
       -0.012220612 0.009246863 0.04389959 0.026780866
000270 b0 ff 54 3c 8b 79 e2 3c a1 50 d4 bc f9 eb 03 bb
       0.013000414 0.027645847 -0.025917353 -0.0020129664
000280 eb 6f dc bc 24 56 c1 bc db bd f1 bc b4 62 93 3c
       -0.026908835 -0.023600645 -0.029509475 0.017991401
000290 c2 54 bc 3b e6 4e dc bb 39 01 72 3d 3b 8d dc 3b
       0.0057474086 -0.0067232726 0.059083197 0.006730703
0002a0 9d 4c 9d 3c 20 28 17 3d 22 38 85 bc fc ec 4a bb
       0.019201571 0.0369035 -0.016262118 -0.0030964008
0002b0 80 f6 4c 3c 6f 77 e3 3b 71 5b 32 bb 1a 4a d9 bc
       0.012509942 0.006941728 -0.0027215148 -0.026524592
0002c0 26 4e 76 3b 57 26 09 bc e3 4d 1c ba 19 4d 07 3d
       0.0037583201 -0.008370957 -0.0005962534 0.03303251
0002d0 fd 49 38 3d bf f9 06 3d a2 70 01 bd 68 be 09 3d
       0.044992436 0.03295302 -0.031601556 0.03362885
0002e0 0a fe 06 3c 86 2a d7 bb 3d 8f dc bb a9 c0 09 bd
       0.008239279 -0.0065663485 -0.0067309425 -0.033631
0002f0 5c 1c 10 3d ac 8d 25 3d 1a 58 0c 3d 77 f6 35 bc
       0.035183296 0.040418312 0.034263708 -0.011106125
000300 e0 b7 04 3c 04 5f 5e 3d 1b a2 26 3d bd 83 80 3d
       0.00810048 0.054289833 0.04068194 0.06275127
000310 40 ed 1a 3d 6f 23 fa 3c 0f 76 d6 3c 39 a5 b4 bc
       0.037823915 0.030534474 0.026179342 -0.02205144
000320 17 44 f1 3b c5 a3 a6 3c 14 8e 5d 3d 09 85 18 3d
       0.0073628533 0.020341763 0.054090574 0.037236247
000330 7f 20 2d 3c 1c 27 37 3c 26 d0 0e 3d 01 21 87 ba
       0.01056683 0.011178758 0.034866475 -0.0010309519
000340 17 d5 52 3d f2 35 0d 3b fa 30 53 bc b1 49 e5 bb
       0.05147275 0.0021547046 -0.012890095 -0.00699731
000350 0a 0e 51 bc f8 2b 1a 3c 61 d2 d4 bc 18 93 31 3c
       -0.012759695 0.009409897 -0.025979223 0.010838293
000360 a9 a3 a0 3c 64 ae f6 3c 90 e8 e6 3a 49 12 d2 bc
       0.01960929 0.030112453 0.0017616916 -0.025643485
000370 37 02 77 bc 86 cb f8 ba 39 89 15 3d 87 d9 08 3c
       -0.015076212 -0.0018981553 0.03650782 0.008352644
000380 9e 86 7c bc d9 35 01 3c fa 4b 7d bc d2 0f df 3c
       -0.015412955 0.007886373 -0.015460009 0.027229223
000390 b5 db 93 3c 29 de 98 3c 43 d4 13 bc fa 35 c3 3c
       0.0180491 0.018660622 -0.009022775 0.023829449
0003a0 7a de f1 3c e0 fb e2 bc ef 8a 42 3d 20 11 20 3d
       0.02952503 -0.027707994 0.04749578 0.03907883
0003b0 3c 57 9a 3b 87 9a 82 ba 74 eb 8b bc 87 b4 a6 bb
       0.004710106 -0.0009964266 -0.017080046 -0.0050874385
0003c0 24 64 a0 3c fd 12 45 3d 6c 36 c3 3c 23 0a 1c 3c
       0.019579 0.04811381 0.023829661 0.009523901
0003d0 01 0e 75 3c d0 32 07 bc bd c4 ed bb 04 f0 01 3d
       0.014956952 -0.008251861 -0.007256119 0.031723037
0003e0 f5 94 95 bc 67 48 18 3d ce 44 25 3d b7 e7 dd 3c
       -0.018259505 0.037178423 0.04034882 0.02708803
0003f0 ac 68 b0 bc 73 5d 18 3d fa fd e1 ba 78 27 20 3d
       -0.021534286 0.037198495 -0.0017241829 0.03910014

fc2.bias f4 [10]
000000 8f 94 9d be d0 dd b4 bd 5f 3f 46 3d 7f fd 37 be
       -0.30777404 -0.0883137 0.04840028 -0.17967795
000010 5d f7 ed 3d c0 a2 9c 3e 8a c8 47 be 84 3f 3e bc
       0.116194464 0.30592918 -0.19510093 -0.011611823
000020 95 23 10 bd f9 16 f1 3d
       -0.035190184 0.1177196

exp_avg f4 [100, 784]
000000 00 00 00 00 00 00 00 00 00 00 00 00 00 00 00 00
       0.0 0.0 0.0 0.0
000010 00 00 00 00 00 00 00 00 00 00 00 00 00 00 00 00
       0.0 0.0 0.0 0.0
000020 00 00 00 00 00 00 00 00 00 00 00 00 00 00 00 00
       0.0 0.0 0.0 0.0
000030 29 4d 88 29 fd 39 15 2a c0 30 00 00 07 02 00 00
       6.0529984e-14 1.3253977e-13 1.7488e-41 7.27e-43
000040 00 00 00 00 00 00 00 00 00 00 00 00 00 00 00 00
       0.0 0.0 0.0 0.0
000050 00 00 00 00 00 00 00 00 00 00 00 00 00 00 00 00
       0.0 0.0 0.0 0.0
000060 00 00 00 00 00 00 00 00 00 00 00 00 00 00 00 00
       0.0 0.0 0.0 0.0
000070 00 00 00 00 00 00 00 00 00 00 00 00 00 00 00 00
       0.0 0.0 0.0 0.0
000080 04 00 00 00 04 00 00 00 62 b7 87 15 0c bd 80 16
       6e-45 6e-45 5.481539e-26 2.079882e-25
000090 89 cc d6 14 81 3f ba 11 90 b8 0b 17 2b e1 11 19
       2.1689153e-26 2.9384763e-28 4.5146273e-25 7.541797e-24
0000a0 51 0d c3 29 ed 66 c5 29 7e 62 e3 26 a5 92 04 28
       8.6620496e-14 8.766412e-14 1.5777986e-15 7.3592704e-15
0000b0 37 e7 1b 26 8d b8 16 25 4c 69 1d 25 6d 5f ae 96
       5.408978e-16 1.3072954e-16 1.3653255e-16 -2.8171438e-25
0000c0 ca ca 9b 97 dc 5c 9a 96 04 00 00 80 04 00 00 00
       -1.0067831e-24 -2.4938644e-25 -6e-45 6e-45
0000d0 00 00 00 00 00 00 00 00 00 00 00 00 00 00 00 00
       0.0 0.0 0.0 0.0
0000e0 00 00 00 00 00 00 00 00 58 e6 eb 1c f5 b3 80 8e
       0.0 0.0 1.5610538e-21 -3.172773e-30
0000f0 64 92 08 31 62 85 ea 96 84 16 93 20 47 7c 5b 21
       1.9873818e-09 -3.7888915e-25 2.4917668e-19 7.4364566e-19
000100 bf 96 88 29 4b 78 d8 ae af e6 4e b5 97 0d 85 b7
       6.0657635e-14 -9.843911e-11 -7.707667e-07 -1.5861164e-05
000110 41 ab 8d b8 d6 c0 9c b8 f0 5c 8a b8 cf 9f 53 b9
       -6.7553025e-05 -7.474578e-05 -6.597664e-05 -0.00020182061
000120 ad 48 b0 b9 3d a8 01 b9 57 85 6c 37 de 4c a2 36
       -0.00033623484 -0.00012365072 1.4097742e-05 4.8369247e-06
000130 6f 52 79 32 59 da 37 31 6a ca 4b 31 c0 a7 9d b1
       1.4512451e-08 2.6754121e-09 2.9655447e-09 -4.5883723e-09
000140 ed 1e 3a b3 ba dc f0 b2 00 00 00 00 00 00 00 00
       -4.3334627e-08 -2.8040052e-08 0.0 0.0
000150 00 00 00 00 00 00 00 00 df ed 81 1d 87 69 4e 1b
       0.0 0.0 3.439197e-21 1.7074018e-22
000160 66 f2 bc 8e dc b0 40 ac bd bb 95 af a6 de 5c b7
       -4.6579e-30 -2.7383018e-12 -2.7236338e-10 -1.3164861e-05
000170 85 32 fd b8 2c 85 22 b9 51 e1 c4 b8 c2 67 1f b9
       -0.0001207339 -0.00015499134 -9.387977e-05 -0.00015202074
000180 8c 8c 3b 3a 41 c0 3a 3b a3 51 38 3b 08 71 4c 3a
       0.0007154427 0.002849594 0.002812483 0.00077988254
000190 90 78 c4 b9 48 dd bf b9 7d 97 32 b6 bb ac b4 39
       -0.0003747386 -0.00036595226 -2.6612245e-06 0.0003446097
0001a0 09 82 fb 39 cd 17 fc 39 fc 8d 01 39 8d c8 01 b8
       0.00047971334 0.00048082919 0.00012355292 -3.0942774e-05
0001b0 78 3e 98 b8 b2 53 00 b8 04 00 00 80 00 00 00 00
       -7.2595605e-05 -3.0595525e-05 -6e-45 0.0
0001c0 00 00 00 00 04 00 00 80 04 00 00 00 f8 fc 5b 81
       0.0 -6e-45 6e-45 -4.0405443e-38
0001d0 b9 86 39 ad 85 f6 1d b8 15 ce c8 b7 af 07 ab b8
       -1.0545947e-11 -3.7661306e-05 -2.3937822e-05 -8.1553466e-05
0001e0 24 49 d1 b8 ae 96 60 b8 60 98 39 39 50 a9 23 3a
       -9.97952e-05 -5.3546093e-05 0.00017699739 0.0006243186
0001f0 79 08 c7 3a 64 58 87 3b 69 ef 66 3b 09 5e f6 3a
       0.001518502 0.00413041 0.0035237914 0.0018796335
000200 ae 79 16 3b 2a ac 94 3a a9 f0 b1 3a ef f9 ed 3a
       0.002296071 0.0011342813 0.0013575751 0.0018156151
000210 92 a5 ea 3a a2 e3 94 3a 76 86 62 3a ca 29 45 39
       0.0017902127 0.0011359344 0.0008641252 0.00018802952
000220 a0 b0 54 b7 1c 64 5d b7 7c 3b c0 27 ce 27 db 82
       -1.2677308e-05 -1.3195935e-05 5.33552e-15 -3.2202005e-37
000230 00 00 00 00 00 00 00 00 7d f9 94 0a cc c9 28 32
       0.0 0.0 1.4345729e-32 9.82477e-09
000240 be f1 2b 33 db 18 8c b9 7e 9a 3a b9 35 b5 63 b8
       4.0033903e-08 -0.000267214 -0.00017795895 -5.428978e-05
000250 ca 4f eb 39 2a 91 a1 3a 52 b4 fd 3a 67 18 f4 3a
       0.0004488214 0.0012326587 0.0019356108 0.0018622995
000260 3f 7b 84 3b 04 96 c0 3b ca 0a 8c 3b 1e 03 3a 3b
       0.0040430124 0.0058772583 0.004273747 0.0028383206
000270 dd 08 27 3b 22 26 9d 3a 60 68 90 39 17 07 9f 3a
       0.002548746 0.0011989514 0.00027543586 0.001213285
000280 9d d5 01 3b c9 84 c8 3a 3a 14 49 39 29 87 81 ba
       0.0019811161 0.0015298362 0.00019176389 -0.00098822
000290 3b 3d a3 35 a2 7c fd b7 36 98 99 ab f8 c1 21 83
       1.2162267e-06 -3.0217987e-05 -1.0913551e-12 -4.7536313e-37
0002a0 00 00 00 00 04 00 00 00 b4 08 ea 2c 53 f0 ac 32
       0.0 6e-45 6.6516462e-12 2.0132722e-08
0002b0 60 8a 14 b3 2f 49 b6 b9 e9 90 8e ba 3d 32 e3 ba
       -3.4584787e-08 -0.0003476827 -0.0010876927 -0.0017333698
0002c0 84 c7 70 b9 21 fe 02 3b a9 78 32 3b 11 3d 59 3b
       -0.00022962509 0.0019987898 0.0027232564 0.003314797
0002d0 41 34 a1 3b 6d 45 c6 3b 96 26 66 3b 3d 44 05 3b
       0.004919559 0.0060507567 0.0035118214 0.0020334863
0002e0 18 19 ad 3a 94 6f 8f ba 05 88 2a bb 48 33 81 ba
       0.0013206331 -0.0010943287 -0.0026021015 -0.0009857202
0002f0 11 16 2d 3a f2 fd 88 3a bb 49 04 ba 46 1f 88 ba
       0.00066027144 0.0010451658 -0.0005046387 -0.0010385297
000300 a3 29 d7 38 f2 97 08 b8 e3 d3 82 b7 13 fa 76 26
       0.00010259754 -3.2566437e-05 -1.5595875e-05 8.568731e-16
000310 04 00 00 00 1f c7 85 b0 14 25 18 2e 6f ed 41 32
       6e-45 -9.733617e-10 3.459373e-11 1.1288065e-08
000320 e9 39 b7 36 fe 57 b6 3a ad a5 ab 3a ab 10 f3 3a
       5.4605666e-06 0.0013911722 0.001309564 0.0018544396
000330 bc 22 c0 3b 00 ed f1 3b b3 a6 bc 3b 9f e3 d8 3b
       0.0058635157 0.007382989 0.005757177 0.0066189314
000340 d2 8e 05 3c b3 10 e3 3b 47 28 2a 3b 50 99 0c b9
       0.008151727 0.006929481 0.0025963949 -0.00013408554
000350 09 18 ec ba 99 0e 8f bb 11 45 9c bb 13 68 2c bb
       -0.0018012534 -0.004365754 -0.0047689755 -0.002630715
000360 5e 0e 0a bb 25 6d 44 ba a2 c0 80 ba f1 dd a6 ba
       -0.0021065692 -0.00074930704 -0.0009823034 -0.0012730939
000370 c7 de 2a 3a 10 95 28 b7 79 e0 4e b5 bc 6d bb 25
       0.0006518182 -1.0048287e-05 -7.706763e-07 3.2513688e-16
000380 04 00 00 00 c9 e8 5a b0 89 c2 5b 2e 33 87 82 b7
       6e-45 -7.9638746e-10 4.9967617e-11 -1.5560165e-05
000390 e7 39 b8 3a 1f d9 90 3b 4f e7 ba 3b 4f 70 08 3c
       0.0014055342 0.004420414 0.0057038437 0.008327558
0003a0 d9 6c 21 3c 3c 1a e2 3b fb 83 6c 3b c8 95 a8 3b
       0.009852611 0.0069001 0.0036089409 0.0051448084
0003b0 fb 35 a6 3b 48 21 9b 3b e2 62 0a 3b db e4 fb b9
       0.005072353 0.004734192 0.0021116068 -0.0004804496
0003c0 6d 87 f9 ba 97 fe 82 bb ea d6 a4 bb 9f 0c 54 bb
       -0.0019037552 -0.0039976346 -0.0050305026 -0.0032356156
0003d0 34 52 66 bb fe 98 14 bb f8 80 bc ba cd c4 64 ba
       -0.0035144212 -0.0022674198 -0.0014381697 -0.00087268354
0003e0 f5 77 1c b9 17 76 df 35 5f ca 37 31 2a ae 9c 94
       -0.00014922007 1.6649163e-06 2.674504e-09 -1.582067e-26
0003f0 04 00 00 00 ba 24 89 18 2a c0 85 2d 08 35 85 b7
       6e-45 3.5450754e-24 1.5205687e-11 -1.587953e-05

exp_avg_sq f4 [100, 784]
000000 00 00 00 00 00 00 00 00 00 00 00 00 00 00 00 00
       0.0 0.0 0.0 0.0
000010 00 00 00 00 00 00 00 00 00 00 00 00 00 00 00 00
       0.0 0.0 0.0 0.0
000020 00 00 00 00 00 00 00 00 00 00 00 00 00 00 00 00
       0.0 0.0 0.0 0.0
000030 00 6a 1a 30 8a 16 39 31 31 7b 2c 17 fd 50 99 12
       5.617551e-10 2.6933855e-09 5.5731687e-25 9.675623e-28
000040 00 00 00 00 00 00 00 00 00 00 00 00 00 00 00 00
       0.0 0.0 0.0 0.0
000050 00 00 00 00 00 00 00 00 00 00 00 00 00 00 00 00
       0.0 0.0 0.0 0.0
000060 00 00 00 00 00 00 00 00 00 00 00 00 00 00 00 00
       0.0 0.0 0.0 0.0
000070 00 00 00 00 00 00 00 00 00 00 00 00 00 00 00 00
       0.0 0.0 0.0 0.0
000080 54 7b 98 11 ca b2 91 1c 18 61 1d 2f 48 76 be 2f
       2.4057378e-28 9.641511e-22 1.4313561e-10 3.4644843e-10
000090 0c 13 97 2d 14 b2 3f 30 1b 8f dc 30 dc a1 1e 33
       1.7175171e-11 6.973846e-10 1.604778e-09 3.6934452e-08
0000a0 28 ea 15 34 95 fa cf 33 2e fa ae 33 d6 e1 bc 34
       1.3961892e-07 9.684769e-08 8.148014e-08 3.5182046e-07
0000b0 a9 45 3d 34 18 bb 16 33 6e 78 12 30 09 0e 85 31
       1.7627339e-07 3.5094757e-08 5.328563e-10 3.872405e-09
0000c0 47 26 de 30 0c bc ae 2b 10 7e 9b 30 f1 c3 17 31
       1.6163505e-09 1.2415637e-12 1.1313563e-09 2.2084772e-09
0000d0 00 00 00 00 00 00 00 00 00 00 00 00 00 00 00 00
       0.0 0.0 0.0 0.0
0000e0 00 00 00 00 00 00 00 00 c6 f1 36 17 ea b3 56 32
       0.0 0.0 5.9112533e-25 1.2497347e-08
0000f0 5e 02 cd 30 38 fe 2d 27 b2 af 65 2e 8c e5 04 35
       1.4916386e-09 2.4146385e-15 5.222462e-11 4.9507867e-07
000100 a7 34 52 33 49 87 af 33 c1 62 c7 34 8b b4 5f 35
       4.8942322e-08 8.173681e-08 3.713849e-07 8.33367e-07
000110 09 29 94 35 10 e7 00 36 ca cc 05 36 43 e1 1a 36
       1.1038802e-06 1.9207982e-06 1.9937747e-06 2.3078908e-06
000120 e6 54 38 36 bd 86 9b 35 37 98 a6 35 05 e4 a9 35
       2.7467554e-06 1.1587614e-06 1.2412264e-06 1.2657844e-06
000130 e4 fd 91 35 c3 be 1b 35 4c 43 63 34 2b 4a 83 33
       1.0877234e-06 5.8019594e-07 2.1165505e-07 6.113654e-08
000140 49 6f 2c 33 c9 56 90 32 00 00 00 00 00 00 00 00
       4.0148084e-08 1.6803272e-08 0.0 0.0
000150 00 00 00 00 00 00 00 00 f2 fd 5d 18 27 2e e1 33
       0.0 0.0 2.869179e-24 1.0485774e-07
000160 b5 a4 50 32 0c 0c 8f 35 20 0a ad 35 19 23 2f 36
       1.21446435e-08 1.0657836e-06 1.2892451e-06 2.6097462e-06
000170 bc f0 29 36 56 7e 84 36 11 3b b6 36 9f 53 b0 37
       2.5323088e-06 3.948614e-06 5.430899e-06 2.1019774e-05
000180 33 12 70 38 c4 1f 22 38 20 31 ad 37 6c 2b b7 37
       5.723741e-05 3.8653394e-05 2.0646083e-05 2.183552e-05
000190 bf 5e b5 37 63 3f 81 37 fd 5b ba 37 05 9c 5d 38
       2.1621001e-05 1.5407515e-05 2.2215763e-05 5.283581e-05
0001a0 10 02 cc 38 c2 a6 fc 37 40 69 47 36 19 14 c8 35
       9.727862e-05 3.0118394e-05 2.9714574e-06 1.490701e-06
0001b0 25 e2 1c 35 fa 0b f7 33 ce 23 bf 31 00 00 00 00
       5.844361e-07 1.1504012e-07 5.562902e-09 0.0
0001c0 00 00 00 00 98 95 41 0f 65 9c a1 25 6d f5 d2 2d
       0.0 9.5444454e-30 2.8035025e-16 2.3983227e-11
0001d0 3d d8 95 34 78 49 c2 35 b1 cc 24 36 0f fb 20 37
       2.7910747e-07 1.4475509e-06 2.455705e-06 9.595197e-06
0001e0 55 76 bb 37 70 39 22 38 e7 45 5f 38 2d ec a3 38
       2.234724e-05 3.8677303e-05 5.3232445e-05 7.816437e-05
0001f0 7c 9e 05 39 c4 db 16 39 0a fd f3 38 11 65 b2 38
       0.00012742908 0.00014386984 0.00011634275 8.5065265e-05
000200 38 f5 a4 38 cf ad 94 38 11 aa c6 38 93 ed 0e 39
       7.865805e-05 7.089564e-05 9.473053e-05 0.00013630679
000210 d9 60 ff 38 de f5 c4 38 29 3a 62 37 dd ae 00 37
       0.00012177387 9.3918046e-05 1.3484191e-05 7.670108e-06
000220 25 91 06 36 42 46 bf 34 bd 21 93 33 5b ad 3c 2f
       2.0052041e-06 3.5627642e-07 6.851358e-08 1.7160089e-10
000230 00 00 00 00 00 00 00 00 e8 ea b4 26 f7 f4 9d 31
       0.0 0.0 1.255368e-15 4.5971507e-09
000240 d6 a7 d2 36 41 78 01 37 9f c9 0d 38 f5 fa 6b 38
       6.2780264e-06 7.716998e-06 3.3804794e-05 5.6262088e-05
000250 c0 e3 94 38 81 ae 10 39 e5 db 97 39 20 9e a6 39
       7.099612e-05 0.00013797918 0.000289648 0.000317798
000260 31 89 d1 39 79 3c 08 3a 98 8f 19 3a de e2 1d 3a
       0.00039965802 0.00051969994 0.0005857884 0.00060228806
000270 1d 3e 0c 3a 16 69 00 3a 17 66 07 3a d1 54 14 3a
       0.0005349832 0.00048984715 0.0005165054 0.00056583906
000280 1a 7a 67 39 db 45 f9 38 70 b4 24 38 9e 2b 1c 38
       0.00022075363 0.00011886257 3.9268692e-05 3.723392e-05
000290 11 b5 f3 37 f6 96 29 36 46 aa 27 33 c5 50 cd 2f
       2.9052173e-05 2.5270833e-06 3.903758e-08 3.7346673e-10
0002a0 00 00 00 00 eb 70 f1 2b 70 a1 39 33 8e f7 47 36
       0.0 1.7155421e-12 4.3220496e-08 2.9797407e-06
0002b0 08 7d 6a 38 c1 c0 4c 39 35 4b d8 39 9d 94 05 3a
       5.5906392e-05 0.00019526762 0.00041254764 0.00050956925
0002c0 61 95 2c 3a 61 24 68 3a 04 9a 83 3a 07 df b7 3a
       0.00065835385 0.00088555185 0.0010040407 0.0014028259
0002d0 e8 b9 fa 3a 89 b0 17 3b eb 22 23 3b 40 7e 1c 3b
       0.0019128891 0.0023145995 0.002489264 0.0023878962
0002e0 1d c6 08 3b 78 db 0a 3b 87 1e d0 3a 0b 43 8c 3a
       0.0020870038 0.0021187942 0.0015878238 0.0010701133
0002f0 6c 1f 46 3a c1 ff af 39 4a 51 1b 39 93 69 ce 38
       0.0007557783 0.00033569153 0.00014812234 9.84251e-05
000300 8c 89 1b 38 82 67 be 37 37 30 08 35 84 58 36 35
       3.708298e-05 2.2697965e-05 5.073411e-07 6.792909e-07
000310 ec 69 c5 04 3d c6 af 33 1d fe cb 34 c1 e6 11 38
       4.641175e-36 8.185132e-08 3.7996588e-07 3.47856e-05
000320 14 cd b1 39 61 90 53 3a 3e 73 83 3a 62 aa a4 3a
       0.00033912866 0.00080705254 0.0010028852 0.0012562985
000330 b2 f7 d8 3a 83 e0 03 3b ef ce 28 3b 1d 53 65 3b
       0.0016553311 0.0020122833 0.0025758108 0.0034992166
000340 7b f6 88 3b 8b 85 a1 3b c9 9d a7 3b 02 93 af 3b
       0.0041797734 0.0049292496 0.005115245 0.005358101
000350 70 87 b3 3b a9 c9 a6 3b 4b 62 92 3b 0b 4a 55 3b
       0.005478792 0.0050899577 0.004467284 0.0032545354
000360 6a 24 f5 3a 34 41 5e 3a 96 dd c6 39 5f 21 95 39
       0.0018702869 0.0008478344 0.00037930597 0.00028444358
000370 00 c1 09 39 11 dc d1 37 6e ef b3 35 f9 49 d8 33
       0.00013137236 2.5017218e-05 1.3406222e-06 1.0071739e-07
000380 99 c3 cb 06 b7 49 76 33 e8 36 33 37 a7 1f b9 38
       7.664752e-35 5.734338e-08 1.0682015e-05 8.827383e-05
000390 32 c6 1f 3a 6e 02 af 3a 9e 3e fa 3a 8a 61 1e 3b
       0.0006094902 0.0013352165 0.0019092148 0.0024167025
0003a0 d4 1f 4b 3b 18 18 76 3b a1 29 9c 3b eb ad b6 3b
       0.0030994313 0.0037550982 0.0047657047 0.005574932
0003b0 fa a0 c9 3b 7d 0f d6 3b 63 6c e0 3b a8 e9 e6 3b
       0.006153223 0.006532608 0.006848858 0.007046897
0003c0 97 cd ea 3b 3a 69 e2 3b 0f c4 c8 3b 36 0f 97 3b
       0.0071656215 0.0069095166 0.0061268876 0.0046099676
0003d0 35 33 3f 3b f2 58 d3 3a 8d 2a 95 3a 53 b5 2b 3a
       0.002917481 0.001612453 0.0011380479 0.0006550152
0003e0 b7 da 79 39 7a 88 a1 38 a8 02 11 36 be 60 30 33
       0.00023827968 7.702499e-05 2.160823e-06 4.106618e-08
0003f0 e5 c3 2b 04 80 b3 cb 31 00 a1 09 38 40 c3 2f 39
       2.0190904e-36 5.9284844e-09 3.281329e-05 0.00016762037

exp_avg f4 [100]
000000 55 dd 7c 37 7c b6 0a 39 29 0e 18 39 14 4f be b7
       1.5071903e-05 0.00013228686 0.00014501125 -2.2686589e-05
000010 d3 e9 00 b9 50 4f e6 b7 a8 fd 35 38 be 0b 5c b9
       -0.00012294138 -2.745507e-05 4.339e-05 -0.00020985209
000020 91 33 3b b8 ac 5b 63 b8 8c 61 c9 38 7f 4d 82 38
       -4.46323e-05 -5.4206394e-05 9.6025964e-05 6.213318e-05
000030 63 26 8d b9 c4 53 f4 38 e8 11 85 b9 34 87 41 38
       -0.00026922216 0.00011650429 -0.00025381078 4.6140703e-05
000040 35 d5 35 36 6e 5b 93 37 3e 96 f3 b6 1b d7 07 38
       2.7095205e-06 1.756634e-05 -7.259455e-06 3.238684e-05
000050 01 9f 44 b8 4e 0c 98 b8 2b f5 01 39 aa a1 e3 38
       -4.6878125e-05 -7.250217e-05 0.00012393731 0.00010854316
000060 ab 04 a0 b6 4a 45 2f b7 fe 54 df 37 5b d6 1d b7
       -4.768915e-06 -1.0446945e-05 2.662325e-05 -9.407838e-06
000070 de 4c c1 b8 64 71 15 39 57 2a 92 38 1b 19 dd 38
       -9.217275e-05 0.00014251989 6.969709e-05 0.000105427775
000080 bf 73 a4 b8 7f 64 a0 b7 e5 f5 21 38 f7 86 2d 39
       -7.841689e-05 -1.9120283e-05 3.86144e-05 0.00016548844
000090 8b 34 ae b8 90 4b 1b 38 c9 8e dc b7 1d 3e 3b b7
       -8.3067534e-05 3.7025253e-05 -2.6292533e-05 -1.116053e-05
0000a0 80 b1 a7 38 44 49 53 b8 46 d0 5a 38 61 7c 56 b7
       7.9962425e-05 -5.0374554e-05 5.216922e-05 -1.2784353e-05
0000b0 5b 7c bf b7 6f e5 9b b8 c9 31 f6 36 be f9 26 b9
       -2.2826882e-05 -7.433711e-05 7.337167e-06 -0.0001592403
0000c0 67 f2 54 38 86 6b cc b6 37 a4 8d 38 9f 08 ad b7
       5.0770494e-05 -6.092191e-06 6.753991e-05 -2.0627222e-05
0000d0 60 39 86 b8 a3 e6 99 b7 ba 60 b6 b9 49 a3 98 38
       -6.400305e-05 -1.834642e-05 -0.00034785812 7.278339e-05
0000e0 6c a9 3e b9 dc 42 8b b8 41 2c fd b7 2c fb 08 37
       -0.00018182927 -6.64049e-05 -3.0180558e-05 8.164712e-06
0000f0 31 37 b7 37 9a 59 de 36 71 36 ad 38 ea 71 7e b6
       2.1841e-05 6.6265466e-06 8.259423e-05 -3.7915256e-06
000100 35 d7 9b 37 da 27 33 38 ab ee b8 39 4c c6 f6 37
       1.8577653e-05 4.271404e-05 0.00035273036 2.9417824e-05
000110 e3 6c 25 38 90 1b 48 b7 8e 92 95 35 87 bd a9 34
       3.9440474e-05 -1.1927346e-05 1.1144018e-06 3.1616602e-07
000120 ae 88 00 38 a5 83 5c 38 dc 05 38 37 55 f6 ea 38
       3.064487e-05 5.257469e-05 1.0968619e-05 0.000112038724
000130 5c fe fd 38 d2 17 f1 37 6f df ca b8 a1 1a a9 b7
       0.00012111358 2.8740531e-05 -9.673728e-05 -2.015877e-05
000140 4a cd 4e b8 5f 30 55 b8 30 30 06 b8 a4 e5 0a b8
       -4.9305418e-05 -5.0828206e-05 -3.1992968e-05 -3.3115633e-05
000150 dc 03 16 b8 38 c0 61 b8 07 50 94 b9 c0 d0 34 38
       -3.576638e-05 -5.3823198e-05 -0.00028288385 4.3109758e-05
000160 3c ad 93 b7 61 06 41 38 48 3b 01 39 98 03 e9 b8
       -1.7604434e-05 4.6020727e-05 0.00012324483 -0.00011110975
000170 65 56 bc b7 b4 67 1b 39 3f d4 78 38 ad ca 7d b7
       -2.2451577e-05 0.00014820584 5.9325477e-05 -1.5127164e-05
000180 dd cc 81 b8 f4 62 5c 38 86 52 0b b9 a3 b7 1d b8
       -6.189358e-05 5.2544245e-05 -0.00013286815 -3.7602742e-05

exp_avg_sq f4 [100]
000000 ed 13 62 34 fc bf 7f 34 97 c7 06 34 e0 5e 2d 34
       2.1055139e-07 2.3818569e-07 1.2552333e-07 1.6146396e-07
000010 45 55 30 34 f5 1e 24 34 6c 72 31 34 94 62 e1 34
       1.6422298e-07 1.5284952e-07 1.6526036e-07 4.198124e-07
000020 32 c9 a1 34 dd 6a 20 34 ea c0 76 34 c9 26 07 34
       3.0134976e-07 1.4940038e-07 2.2980717e-07 1.2586965e-07
000030 e8 a5 24 34 63 3e 88 34 55 f5 fb 34 fd fc 05 34
       1.5334047e-07 2.5377366e-07 4.6930896e-07 1.2478627e-07
000040 f7 d6 bf 34 70 49 f1 33 68 19 a7 34 92 9e 47 34
       3.573293e-07 1.1235795e-07 3.112466e-07 1.8591007e-07
000050 32 2c 95 34 37 08 91 34 30 8f 8c 34 b1 3e 28 34
       2.778557e-07 2.7014332e-07 2.6181215e-07 1.5669026e-07
000060 72 91 91 34 93 a1 8c 34 09 dc 96 34 40 90 11 34
       2.711418e-07 2.6194593e-07 2.8099774e-07 1.3556655e-07
000070 55 48 42 34 51 f8 9b 34 5e 72 6f 34 62 e4 f6 33
       1.8093972e-07 2.9051674e-07 2.2300216e-07 1.149681e-07
000080 f4 dc 48 34 22 c8 76 34 01 3e ef 34 5f d8 2c 34
       1.8706834e-07 2.2983343e-07 4.4562333e-07 1.6097464e-07
000090 77 71 e2 34 47 55 0a 34 1c b6 ba 33 e8 fb 8f 34
       4.2178337e-07 1.2883275e-07 8.6944254e-08 2.6819112e-07
0000a0 53 66 e2 33 cf aa 95 34 82 5c 2c 34 8e f5 32 34
       1.0542558e-07 2.7877692e-07 1.6052402e-07 1.6666874e-07
0000b0 d9 82 97 33 49 f2 36 34 49 9d fa 33 79 d5 8f 34
       7.0552865e-08 1.7038214e-07 1.1670142e-07 2.6791147e-07
0000c0 ef 11 56 34 ca 66 79 34 c8 d3 09 34 f9 f2 1c 34
       1.9936827e-07 2.3227327e-07 1.2836165e-07 1.4617025e-07
0000d0 26 17 2f 34 7e 63 6f 34 f9 2e 77 34 3f 32 a3 34
       1.6306566e-07 2.2294805e-07 2.3020756e-07 3.0397675e-07
0000e0 ce 2f 23 34 82 c0 03 34 e1 f9 14 34 a8 fb 4e 34
       1.5197949e-07 1.227036e-07 1.387448e-07 1.9276797e-07
0000f0 ea 4d 3f 34 8a b3 39 34 8a f5 e9 33 70 f9 c2 33
       1.7816606e-07 1.7294784e-07 1.0894571e-07 9.0792014e-08
000100 e0 4d e1 33 6e 93 5e 34 f2 66 b5 34 3b 81 f8 33
       1.0491544e-07 2.0728996e-07 3.378878e-07 1.1571907e-07
000110 20 72 72 34 2e e6 37 34 d3 c0 67 34 af ae e4 33
       2.2579525e-07 1.7126942e-07 2.15837e-07 1.0648852e-07
000120 01 64 db 33 53 cf 4e 34 76 76 79 34 d2 c9 6e 34
       1.0216173e-07 1.9260669e-07 2.3233028e-07 2.2238899e-07
000130 b9 43 24 34 9d c4 f3 33 e1 31 59 34 65 42 8c 34
       1.5298328e-07 1.1351333e-07 2.0227846e-07 2.612534e-07
000140 99 fa 43 34 b5 8f c7 34 ec fd 49 34 17 b2 8d 34
       1.8251957e-07 3.71712e-07 1.881196e-07 2.6392874e-07
000150 f1 b9 39 34 6c 9f 05 34 62 5d de 34 6f b2 61 34
       1.7297113e-07 1.2444588e-07 4.1418667e-07 2.1019672e-07
000160 30 fb a8 33 9c c0 88 34 7a 6e 01 34 31 43 e6 34
       7.8688004e-08 2.5472116e-07 1.2054252e-07 4.2889727e-07
000170 30 8d 9e 34 8f 9c f7 34 fd 73 0a 34 c1 72 37 34
       2.953252e-07 4.6121247e-07 1.2894448e-07 1.708495e-07
000180 ee b7 50 34 3c e8 6a 34 75 6b 79 34 fe a5 4b 34
       1.9438423e-07 2.1877435e-07 2.3229025e-07 1.8966236e-07

exp_avg f4 [10, 100]
000000 bc 0e 32 3e ad 09 fc 3d 35 f1 f8 bc 58 9f cd 3d
       0.17388433 0.12306533 -0.030388454 0.10040158
000010 eb 7f 95 be 95 e4 5b 3a 97 65 01 3e 46 5c c6 3e
       -0.29199156 0.00083882484 0.1263641 0.38742274
000020 ca c9 c0 3d 05 d1 96 3e d3 ab 1e 3e 97 3d f9 3d
       0.09413488 0.29456344 0.15495233 0.121699505
000030 68 ad c8 be e6 c0 98 3d c5 4e 61 3d bf 43 95 3e
       -0.39194798 0.074586675 0.05500676 0.2915325
000040 9b 77 d5 be 25 d8 7f 3d 63 dd 5b 3e e8 d2 31 3e
       -0.41692814 0.06246199 0.21471171 0.1736561
000050 9a 1c 0d bf 9d 14 9a 3e d2 02 5f 3d c9 32 4f bf
       -0.5512177 0.30093852 0.05444605 -0.80936867
000060 2d 55 4f 3e 3a 10 7b 3e 2f f2 0c 3f 00 df 24 3e
       0.20247336 0.24517909 0.5505704 0.16100693
000070 b4 78 8a 39 40 bf 05 3f 55 0c 89 3e 1d 99 29 3e
       0.00026411342 0.5224495 0.2676722 0.16562314
000080 72 ce 32 3e 11 a6 b5 3d 4d 9a 9d be 75 27 09 bf
       0.17461565 0.08869565 -0.30781785 -0.5357583
000090 64 25 b7 3d 2c 50 10 3d dd fc 15 3e 5d e2 4f 3e
       0.089426786 0.035232708 0.14647241 0.20301194
0000a0 0a 2d fb 3d 1b 48 73 3d 3a 65 9e 3d 2b ba 0c 3e
       0.1226445 0.059394937 0.07734151 0.13742892
0000b0 16 bc 87 3e 20 ee a9 3e f7 04 dc bc 32 a9 80 be
       0.26510686 0.33189487 -0.026857836 -0.25129086
0000c0 21 b0 9f bc db ba 8b bd b7 a2 0b 3e ad 6d 3d bd
       -0.019493164 -0.06822749 0.1363629 -0.046247173
0000d0 a7 e1 17 3f 93 a1 08 bd 87 3c 32 3b e5 80 68 3d
       0.59328693 -0.033357214 0.0027196722 0.05676355
0000e0 90 4d cc 3d 95 7b b8 3e a0 b1 9a 3d af 4b 32 3e
       0.099757314 0.36031786 0.075534105 0.17411683
0000f0 89 02 6d 3d 78 8a dd 3d 6a 26 d4 3d a5 fb 22 3e
       0.057863746 0.108174264 0.103588894 0.15916307
000100 91 27 21 3d bc 88 78 3d b9 2f 6e bd c5 69 37 3d
       0.039344374 0.060677275 -0.05815098 0.044778604
000110 29 a8 73 be 88 8f 35 bd 68 b4 1c 3e 68 43 42 3e
       -0.23794617 -0.044326335 0.15303195 0.18971026
000120 59 70 52 3b d7 08 21 3d e7 a2 a6 3d fa 73 53 3e
       0.0032110421 0.03931507 0.0813654 0.2064971
000130 4f a0 a1 3d ef ac 63 3e 77 3d 9c bd d3 92 24 3e
       0.078919046 0.22233938 -0.07628911 0.16071634
000140 36 79 79 3e 12 ce 39 3d b6 0a 5d 3e 62 78 28 3d
       0.24362645 0.04536254 0.21586117 0.04113043
000150 00 b8 03 3e 97 50 d7 3b 8a 65 06 3e fc 75 b9 3d
       0.12863159 0.0065708864 0.13124672 0.09055707
000160 57 f0 2a 3e bb 5b c3 3d f7 e1 3d 3e 42 60 40 3d
       0.16693245 0.095389806 0.1854323 0.0469668
000170 bd b4 3b 3e b8 5d 8f be f3 35 22 3e 9d 94 e1 3d
       0.18330665 -0.2800119 0.15840892 0.11014674
000180 6e db 89 3e b4 39 9d 3d d5 5c 6b 3e 51 24 98 3e
       0.26925224 0.076770216 0.22984631 0.29715207
000190 cc 57 1a 3c da 8b f6 3b 26 86 8c bc 7a 02 74 3d
       0.0094203465 0.007523996 -0.01715381 0.059572674
0001a0 4b bb f4 3c 3b 16 1e 3e dc 1a 0e 3e 96 ce ca 3d
       0.029874464 0.15438168 0.13877434 0.099026844
0001b0 c3 2f d5 3b f5 b6 fc 3d 4b 4d c1 3d 2f 68 b5 3d
       0.006505938 0.12339584 0.094385706 0.08857762
0001c0 47 cf 83 3d 7d ad db 3c 52 d7 a0 bd 36 dc 02 3e
       0.064360194 0.026816124 -0.07853569 0.12779316
0001d0 a6 c6 1c bd 35 15 c3 3c a3 5b 45 be a4 55 34 bb
       -0.038275383 0.023813823 -0.19273238 -0.0027516866
0001e0 22 38 55 3b d4 6e 3a be 0e ea 53 3e 7d 45 93 3e
       0.0032534678 -0.1820634 0.20694754 0.28763953
0001f0 2b c2 30 bd 01 03 5f 3d 7d d3 a9 be 25 05 7b 3d
       -0.043153923 0.054446224 -0.33169165 0.061284203
000200 f3 0b ea 3d 34 98 cf 3e d0 e1 6d 3d 15 e5 41 3d
       0.114280604 0.4054581 0.05807668 0.04733761
000210 c4 90 bf bc 89 b7 2e 3e 86 54 07 bc 64 9f 5a be
       -0.02338446 0.170622 -0.008259898 -0.21349865
000220 20 fa 21 3e 94 bb 30 3e db f0 ba 3b 17 07 95 3e
       0.15818071 0.17259055 0.0057049817 0.29106972
000230 81 c2 44 3d a1 d0 2d 3e 19 ee 20 3e 6f fb 11 3e
       0.048037056 0.16974117 0.15715827 0.1425607
000240 f9 01 2f bd 0d c0 86 3e 36 47 3e 3d 96 3d 17 3c
       -0.04272649 0.26318398 0.04645463 0.009230992
000250 3c 1d a8 3d aa 96 40 3e 30 64 07 3d 56 be b3 3e
       0.08208701 0.18807474 0.03305453 0.35106152
000260 9f 2d 84 bd 29 e3 bb 3d 49 1b eb be f6 bd a2 bd
       -0.06454014 0.09174187 -0.45919254 -0.079463884
000270 d6 26 e3 3d de 30 52 3e 18 5c e4 3c 0e 69 bc 3c
       0.11091392 0.20526454 0.027875945 0.022999313
000280 2b 4c 08 3e 3e 06 a3 bc d5 9d 86 3e 20 cd 23 3e
       0.13310306 -0.019900437 0.2629229 0.15996218
000290 a1 78 02 3e 52 92 61 3c 64 c5 84 3e 00 87 51 bd
       0.12741329 0.013767796 0.25931847 -0.051154137
0002a0 a5 89 b8 bc ed 87 03 3d 53 99 22 3e 6b 0f bb 3d
       -0.022526572 0.03211205 0.15878801 0.091338
0002b0 53 b7 d0 3d 1a 61 02 3e 64 5d 52 3d ef 57 64 3d
       0.10191216 0.12732354 0.051358595 0.055747923
0002c0 62 26 63 be 68 f4 e3 3d f9 8e 8c 3d ac 57 57 3e
       -0.2218261 0.11130601 0.06863207 0.21029538
0002d0 b7 12 58 3e 9f b9 3c 3e 5c 6c 3a 3e 7a a3 5e bd
       0.21100889 0.18430184 0.18205398 -0.054355122
0002e0 28 f3 cf 3c ed b6 0e be 7b 19 87 3d 7d 41 80 3b
       0.0253845 -0.13936968 0.06596657 0.003914057
0002f0 c7 c1 52 3c 1a 06 0e 3e bd 8c 80 bd 69 b1 1e 3d
       0.012863583 0.13869515 -0.06276844 0.03874341
000300 4b 9d 90 bd 51 71 6f be 76 a5 a6 3d 56 02 a7 3d
       -0.07061251 -0.2338307 0.08137028 0.081547424
000310 89 3c 4e 3e a4 45 f4 3d 65 0e d6 3d 44 72 99 3e
       0.2014028 0.119273454 0.10451964 0.2996999
000320 4e c5 62 be f5 a7 c1 3d 37 bb f2 bd db 78 1e be
       -0.22145578 0.094558634 -0.11852115 -0.1547579
000330 d9 4b 76 3d 64 6b 42 bf 66 d6 78 3d b1 c3 9c be
       0.060130928 -0.75945115 0.06075134 -0.3061805
000340 db 36 04 bf 95 d0 c5 be b2 90 19 be f9 72 e8 bd
       -0.516462 -0.38635698 -0.14996603 -0.11350054
000350 dd 29 a4 3e 6f fb d1 be 28 b5 64 3d 23 75 25 be
       0.3206319 -0.4101214 0.055836827 -0.16157965
000360 b1 4d 94 3e 08 ab 34 bd fe 04 b3 be a2 33 94 be
       0.28965524 -0.04410842 -0.34964746 -0.28945643
000370 bb eb c1 be 3a e7 87 be 06 3a 23 bb ad 33 0f 3f
       -0.3787516 -0.265436 -0.002490641 0.55938226
000380 8a c9 80 be 78 62 a9 be c0 88 fa be d5 d9 b1 be
       -0.25153762 -0.33082938 -0.48932457 -0.34736505
000390 52 07 8e be b0 1e ba be c0 a7 36 be 7e f6 dc 3d
       -0.2773996 -0.36351538 -0.17837429 0.10789202
0003a0 68 17 8e bd 6d c0 8b be 04 6a 46 3f 43 a2 3d be
       -0.06938058 -0.27295247 0.77505517 -0.18518929
0003b0 35 3f 86 be 3f 8b b7 be 97 b6 98 be c5 b3 4e bf
       -0.26220098 -0.35848424 -0.29826805 -0.80743057
0003c0 d3 7b 8d be 3c fb ec bd f4 a1 85 3c 2c 40 93 bd
       -0.27633533 -0.11571357 0.016312577 -0.07189974
0003d0 64 b1 c2 be 23 29 49 be 00 5f 20 bd 9f ba 54 be
       -0.38025963 -0.19644599 -0.0391531 -0.20774315
0003e0 8d 05 da 3d 4d 4c 47 bc 17 4c e7 bd c2 c0 0b be
       0.1064559 -0.012164188 -0.1129381 -0.1364775
0003f0 a8 d9 d3 be cb 4b 3e 3e ad d3 91 3c 0f 8f bb bd
       -0.41376996 0.185836 0.01780113 -0.09158146
